savemodel/model_gru.pth (torch, 132444 bytes, 5 tensors)

gru.weight_ih_l0 f4 [300, 6]
00000000: a236 bebd ca10 193d dfca 8a3d b038 99bb
00000010: 3de4 33bd 85f7 c0bd 2266 213d 36db 0a3d
00000020: f9e2 a93d 4e0a 593d 1a23 89bd 18d6 323c
00000030: 1827 c93c 0d19 3dbd f824 b1bd e8d6 5cbc
00000040: f086 04bc 9317 61bd 528d 81bd c60a 8cbd
00000050: 74a4 fe3c 903a 153c bd4c 5ebd b69b 193d
00000060: 17b8 64bd 57b8 883d a1b4 9c3d a86d 05bc
00000070: d88b abbd d059 7cbc d023 79bd b9cc bf3d
00000080: 307a 2fbd a7dd adbd 007c df3a feb4 583d
00000090: 612e ad3d f07e 60bc 87c4 b63d 86cf 723d
000000a0: 869a 0bbd c026 173c 461b 12bd d8d0 9dbc
000000b0: d790 943d 4bd6 af3d 21b7 a53d 5e1b 5f3d
000000c0: 92b2 2b3d d426 99bc d5b5 8dbd 003f ccbb
000000d0: 3bb0 8f3d 97d7 48bd 2e59 173d 3bbf c1bd
000000e0: d062 6ebd 734d bc3d 005d 333a 5db8 903d
000000f0: eda4 84bd d0ff a93b c701 b33d 9160 bc3d
00000100: f408 fb3c 474f 65bd 7259 783d 5a74 54bd
00000110: 45d3 9cbd 4dc8 2ebd f73e babd 4c81 f4bc
00000120: 03f4 28bd 478a 21bd 60da 86bd 5a37 0abd
00000130: 3ab5 2ebd b7ff 2cbd 5454 ee3c 5450 a9bc
00000140: e837 bd3c 52b8 85bd f82f e6bc bbcc adbd
00000150: 9883 8cbd 42b9 85bd 780f d2bc 34fb a4bc
00000160: 8c06 d53c 9c87 80bd c749 a13d a894 60bc
00000170: 1ea4 413d 6dcf 7cbd cd84 853d 017d 883d
00000180: ea47 07bd aa43 493d 88ac a9bd e704 62bd
00000190: 50e1 803b a0d9 cfbb 62bd 313d 35e9 ac3d
000001a0: e104 8a3d 2de1 9cbd 3777 9c3d 0160 913d
000001b0: b082 0d3c 7097 bdbd f061 8bbd 1975 a53d
000001c0: d8ef a4bd 8a79 afbd 823f a9bd 3e76 043d
000001d0: d4e7 fcbc 6834 8ebd b881 d1bc b0f6 93bd
000001e0: 4e23 0c3d c2fd 1b3d 3e2a 703d 6a7e 7bbd
000001f0: 1cac 8cbd d078 eabb 70bc 1a3c dadd 11bd
00000200: c067 27bb 60c9 b3bb 67f2 7ebd a8ee c8bd
00000210: 90df 75bd 82a2 083d d778 9f3d d724 72bd
00000220: 8ca2 e1bc c8cb 92bd ca79 153d 946e be3c
00000230: 5e11 303d 34e5 f33c d1c0 803d 6abe 153d
00000240: 4991 873d 53f2 adbd 34e8 f23c e1ba 973d
00000250: d7e6 1ebd 6241 b3bd b79f 953d 13c3 aa3d
00000260: a9a8 b43d c0dd 6e3b 20f0 87bd 4b62 c33d
00000270: ec45 9cbc 40ac 6e3b 6040 373b 76f3 8ebd
00000280: f7c2 58bd 80e5 50bc 1ad6 8dbd d369 973d
00000290: 8008 b23a c0a9 c1bc 2805 1e3c 215e b33d
000002a0: 5249 3e3d d262 bdbd 29ca bf3d 80f2 7bbd
000002b0: f0cd 97bd 3d7d 64bd 7648 a5bd e22d 4c3d
000002c0: c6d6 713d 803b cfbc d34e 92bd d04a bf3b
000002d0: cec2 4d3d 0621 3a3d bab8 2e3d 9292 113d
000002e0: 27da 6cbd 15a8 bdbd 5f64 8c3d ed29 45bd
000002f0: c8a9 c83c 46cf 9ebd 00d0 ac3c 36d9 023d
00000300: b030 6bbc 2a02 22bd 0074 c33a 7241 793d
00000310: 317b 873d a73d afbd 9aac 753d 2db6 c73d
00000320: 0003 5c3c 3d1a c43d 33e6 2abd 01ed b93d
00000330: 520e 4e3d 10f3 c2bd 102a 56bd bd3e bbbd
00000340: 3011 01bc 6453 f43c 5a5c 6abd b08e 56bd
00000350: 00c0 21ba 6b62 a73d a09c 31bd f9a7 933d
00000360: 006c 393c 8088 a6ba a19f 8b3d 4e5a 90bd
00000370: 963f 623d 7408 f2bc 7025 70bc 28b4 a43c
00000380: 4c1f f73c dfe1 b7bd 109b 86bd e877 13bc
00000390: 8ae6 45bd 7852 bebc a000 5dbb 855d 9dbd
000003a0: 00a6 f03b 2e8e 7f3d 3834 c73c 66cc 323d
000003b0: 540c e0bc 33c7 af3d 5642 11bd 8479 f03c
000003c0: cea2 353d 4309 b13d 83f7 48bd 00f5 da39
000003d0: ae52 563d cec4 3e3d 80d4 8a3a f7c1 943d
000003e0: fe36 95bd 8ac2 5fbd 5a6c 27bd 6873 febc
000003f0: 3805 b3bc 71cb b53d 51ca 813d 98cd 5abc
-0.09287764 0.037369527 0.06776976 -0.004675947 -0.043918837 -0.094222106 0.039404042 0.033900462
0.08295245 0.052988343 -0.06696148 0.010915302 0.024554774 -0.04616647 -0.08649629 -0.013478972
-0.008088812 -0.054954123 -0.06325783 -0.06837992 0.031084277 0.009108201 -0.054272402 0.037502013
-0.055839624 0.06675785 0.0765164 -0.00814382 -0.083762825 -0.015402272 -0.06082517 0.093652196
-0.042841136 -0.084895425 0.0017050505 0.052906983 0.08456112 -0.013702139 0.08924203 0.05927994
-0.034082912 0.009225547 -0.03567054 -0.019264624 0.072541885 0.08585795 0.0809157 0.05446946
0.041918345 -0.018695273 -0.06919447 -0.006233096 0.07016035 -0.049033727 0.036950283 -0.094603024
-0.058199704 0.0919446 0.0006842166 0.070664145 -0.064767696 0.005187966 0.087405734 0.09198106
0.030643918 -0.055983808 0.060632177 -0.051868774 -0.07657484 -0.04267149 -0.09094041 -0.02984681
-0.041248333 -0.039438512 -0.065846205 -0.033744194 -0.0426533 -0.042236056 0.029092945 -0.020668186
0.023097947 -0.06529297 -0.028099045 -0.08486315 -0.06861037 -0.06529476 -0.025642142 -0.020139314
0.026004098 -0.062758654 0.078754 -0.013707317 0.047275655 -0.061721254 0.0651947 0.066644676
-0.033027567 0.049136795 -0.08284861 -0.055180456 0.0039331093 -0.0063430816 0.0433935 0.08442918
0.06739212 -0.07660136 0.07639926 0.070983894 0.008637115 -0.092574 -0.068057895 0.08078975
-0.08053559 -0.085681036 -0.08264066 0.032339327 -0.030872263 -0.069435894 -0.02557455 -0.07224786
0.034213357 0.0380838 0.058634035 -0.061399855 -0.06868765 -0.0071555153 0.009444341 -0.035611965
-0.0025544018 -0.0054866523 -0.06224289 -0.09811145 -0.06002766 0.033358105 0.0778672 -0.059117164
-0.027543329 -0.071677744 0.0364931 0.023246087 0.042985313 0.029772379 0.06286777 0.036558546
0.06619508 -0.08493485 0.029651739 0.07408691 -0.038794365 -0.08752705 0.07305854 0.08337989
0.08821232 0.0036448091 -0.06637597 0.09540232 -0.01907631 0.0036418587 0.0027961954 -0.0698003
-0.052920308 -0.01275003 -0.06925602 0.07393231 0.0013582855 -0.023640513 0.009644784 0.08758188
0.046456642 -0.09247364 0.09364731 -0.061510563 -0.07412326 -0.0557835 -0.080704615 0.049848445
0.059042715 -0.025296926 -0.07143941 0.0058377758 0.05023461 0.04544165 0.042656638 0.03554017
-0.057825234 -0.09260575 0.06855082 -0.048135687 0.02449502 -0.07754378 0.021095276 0.03194543
-0.01435487 -0.039552845 0.001491189 0.06085343 0.06615294 -0.08556681 0.05997906 0.09751544
0.01342845 0.09575317 -0.04172344 0.09078408 0.050306626 -0.09519017 -0.052286208 -0.09142826
-0.007877633 0.02982492 -0.05721698 -0.05238217 -0.0006170273 0.081730686 -0.04336226 0.072097726
0.011317253 -0.0012705475 0.06817556 -0.07048474 0.05523642 -0.029545046 -0.014657363 0.020105436
0.03016629 -0.08978628 -0.065725446 -0.009000756 -0.048315562 -0.023232684 -0.0033722296 -0.07683853
0.0073440075 0.062391452 0.024316892 0.04365196 -0.027349629 0.08582916 -0.035463654 0.029354818
0.044344716 0.08644345 -0.04906417 0.0004176274 0.052324943 0.046574406 0.0010591894 0.07263558
-0.072858796 -0.054628886 -0.040874816 -0.03106089 -0.021853074 0.08876694 0.06337417 -0.013354681

gru.weight_hh_l0 f4 [300, 100]
00000000: d6e1 92bd 4002 1cbd 820d bbbd 4090 b73c
00000010: acf8 f0bc 7400 b9bc bdb7 1bbd 58cd a93c
00000020: 2349 93bd 12f0 c7bd ddaf 70bd b244 b4bd
00000030: a00b 43bb 91b1 9b3d a686 413d 0d90 c83d
00000040: 8f5f 913d 3b5f ad3d 272c 76bd a4f7 11bd
00000050: 8fec 833d 0385 8e3d cbe0 acbd 0003 babd
00000060: 25f1 cabd c702 27bd 5fd1 c43d ded5 6c3d
00000070: 8636 6e3d e016 e43b 336c 963d b067 053c
00000080: 9f30 be3d 1879 1dbc c0d6 78bb 3257 093d
00000090: 0e7d a5bd 9a74 693d 0beb c63d 0c5b ee3c
000000a0: 6095 68bb da82 4ebd 113e 833d b3c3 a8bd
000000b0: c124 af3d e0d0 12bd 2911 cc3d 51df bc3d
000000c0: eca2 e5bc a0da c9bc 03eb 7dbd c0de 32bb
000000d0: 28d4 b03c c1bb be3d ec0a f53c 0028 a6b9
000000e0: 3ebc 633d 6035 0e3b a308 76bd 749b bf3c
000000f0: 5094 823b 2438 d33c 4dd3 5fbd da76 bfbd
00000100: 2c30 f7bc d4a2 c73c 50a6 49bc a8f8 62bc
00000110: 5e9e 173d 4080 15bb e2ed 703d bb51 97bd
00000120: 96b0 323d 9e6c 3e3d 48ef bdbc c3ec 96bd
00000130: f0b4 15bd 0057 38bb 4a35 1f3d 73a3 bbbd
00000140: 00df 7cba c42a 85bd e8d2 893c 98af 503c
00000150: c78e c13d 4837 e6bc c0ad 71bd 94b4 c03c
00000160: d28a 613d 1f0d c83d 108f c0bd e2f9 173d
00000170: 80aa 3fba 91fd 883d 8d50 47bd f898 843c
00000180: 8763 62bd 0291 3d3d 590a c53d 3fa0 be3d
00000190: 0753 963d 9b33 8d3d 2ff8 c13d 4a3e 383d
000001a0: b9c0 c83d 70a8 3bbc 6e86 5b3d 71d5 a93d
000001b0: 00fa a139 5080 8dbd e7de 8c3d aed0 433d
000001c0: 9f34 a33d 5865 97bc 00d4 aabb e011 8d3b
000001d0: 1e96 a8bd 7dab 65bd 32f0 583d 5a8a 1d3d
000001e0: 2ea2 aabd 6036 69bd b0bd c0bb 54e9 a3bc
000001f0: 34ee b0bc cd96 a3bd 4c5c f8bc 4b7e 813d
00000200: 3181 a83d e4f5 fb3c f5fc c23d 390f 803d
00000210: 2097 e8bc 1876 fbbc 003f 7dbc 3417 e7bc
00000220: 98d4 01bc 2cf6 9c3c 3bf7 c53d 96d7 2f3d
00000230: c0c2 e8bc 178a aebd 1121 bc3d 00f7 f6bb
00000240: a200 97bd 6d02 31bd 302c a2bd 828a 2a3d
00000250: 9861 82bc f00b 153c a070 acbc ca6b babd
00000260: 2044 b43b d7b8 b1bd a808 e2bc 7848 983c
00000270: d920 913d ae26 753d c078 e9bc fec3 94bd
00000280: fe95 583d 282b 13bc 6e32 2f3d 4e6f 7e3d
00000290: d0eb 12bd b1d5 a03d 17c0 b93d 0578 b5bd
000002a0: 4009 a9bc 9a52 33bd 55ce 87bd 4659 583d
000002b0: b1c1 be3d 4cb3 00bd 4afb 223d 3fae c83d
000002c0: c0a4 0b3b 4e1b 5b3d 55b3 9f3d 1c77 d73c
000002d0: 4ad9 6ebd f2aa 93bd 056c 98bd 67e9 9f3d
000002e0: eea5 5a3d e856 3c3c 6580 af3d 10be 423c
000002f0: 3dcc a53d 8ab5 2d3d 627d 083d 0e8d 743d
00000300: 0c8b 19bd d4c0 abbc 8e37 9fbd 0866 d9bc
00000310: 023b 5d3d 357c 94bd b887 a63c ccad dc3c
00000320: 0f9c 893d 78ae 9ebd b0f1 653c a053 2ebd
00000330: 18bc a23c 8f15 bd3d cdb7 a6bd e372 72bd
00000340: aa9c 303d b95c a63d 98e9 95bc ca5f 8ebd
00000350: 027e 543d 3291 7c3d 6a58 98bd 1871 50bc
00000360: ca15 a6bd 7c54 04bd 1e05 463d c09c 2dbc
00000370: 3f99 c9bd 0426 d33c 4ed9 213d 722b 133d
00000380: b2b7 9dbd ca22 683d 1341 c2bd 82ca 573d
00000390: 1277 053d c000 5a3c 3437 f53c 009b 423b
000003a0: 818d c43d 9683 223d 40f5 82bd b4f9 d13c
000003b0: 9260 413d 04f0 ec3c e5ca c2bd 91df 973d
000003c0: cd2e 873d b814 af3c 066e 00bd 8112 943d
000003d0: 2f84 c7bd b39f 72bd 508f abbb 8cd3 b0bc
000003e0: 280e b2bc 3050 c1bb d7fe b03d 9b50 a2bd
000003f0: 5136 af3d 1210 3e3d b0c9 333c 789a cbbc
-0.07171981 -0.038088083 -0.09133436 0.022407651 -0.029415451 -0.022583224 -0.038017023 0.020727798
-0.07191684 -0.09762587 -0.058761466 -0.08802165 -0.0029761568 0.076022275 0.04724755 0.097931005
0.070983045 0.084654294 -0.0601007 -0.03563656 0.06441604 0.06958964 -0.08441313 -0.090826035
-0.09909276 -0.040774133 0.09610247 0.057821147 0.058157466 0.0069607347 0.07344856 0.008142397
0.092866175 -0.0096113905 -0.0037969798 0.03353042 -0.08080493 0.056995966 0.097128 0.029096149
-0.0035489425 -0.05041776 0.064083226 -0.08240452 0.08551932 -0.03584373 0.099642105 0.09222282
-0.028031789 -0.024640381 -0.061991703 -0.0027293414 0.021585539 0.09313155 0.029912435 -0.0003169179
0.055599444 0.0021699294 -0.06006683 0.023389556 0.0039849654 0.025783606 -0.05464487 -0.09348841
-0.030174337 0.024369635 -0.012307718 -0.01385323 0.037016265 -0.0022812039 0.058820613 -0.07388636
0.043625437 0.046490304 -0.023185387 -0.073693775 -0.03654951 -0.0028128028 0.03886918 -0.09162035
-0.00096462667 -0.065022975 0.0168242 0.012737177 0.09451061 -0.028102532 -0.05900359 0.023523606
0.05506403 0.09768128 -0.09402287 0.03710354 -0.0007311478 0.06688989 -0.048660804 0.016186222
-0.055270698 0.04628087 0.09621114 0.09307908 0.07340055 0.068946086 0.094711654 0.04498128
0.09802384 -0.011453733 0.053595 0.08292664 0.00030894578 -0.06909239 0.06878453 0.047806434
0.07969021 -0.018480942 -0.0052132607 0.0043051094 -0.082317576 -0.056071747 0.052963443 0.03846202
-0.083317146 -0.05693662 -0.0058819875 -0.02000872 -0.02159796 -0.07987747 -0.030317448 0.063229166
0.08227766 0.030756898 0.09520904 0.062529035 -0.028392375 -0.03069596 -0.015456915 -0.028209306
-0.007924221 0.019160353 0.09666296 0.04293021 -0.028413177 -0.08522432 0.091859944 -0.007536769
-0.073731676 -0.043215204 -0.07918584 0.041635998 -0.015915677 0.009097084 -0.021049798 -0.091025904
0.005501285 -0.086778335 -0.027592018 0.018589243 0.07086343 0.05985134 -0.02849996 -0.07263945
0.05287742 -0.008982457 0.042772703 0.062117867 -0.03586942 0.078532584 0.09069841 -0.088607825
-0.020634294 -0.043779947 -0.066311516 0.052819513 0.093142875 -0.03142099 0.03979043 0.0979886
0.0021307915 0.053492837 0.07797877 0.026301913 -0.05831269 -0.072103396 -0.07442478 0.0780819
0.0533809 0.011495329 0.08569411 0.011886135 0.08095596 0.042409457 0.0333227 0.059704833
-0.03748612 -0.020965971 -0.07774268 -0.02653791 0.054011352 -0.07250253 0.020328388 0.026938342
0.06719219 -0.07748121 0.014034674 -0.04256022 0.01986508 0.092326276 -0.08140526 -0.059191596
0.043118156 0.08123154 -0.018299863 -0.06951864 0.051877983 0.061661907 -0.07438739 -0.012722276
-0.08109625 -0.032307133 0.048344724 -0.010596454 -0.098436825 0.025774963 0.03951388 0.035930105
-0.07701053 0.056673802 -0.09485068 0.05268336 0.032584257 0.013305843 0.02993355 0.0029694438
0.09597302 0.03967627 -0.06394434 0.025631763 0.047211237 0.028923042 -0.09511355 0.07415689
0.066007234 0.021372184 -0.031354927 0.07230092 -0.09742009 -0.059234332 -0.00523559 -0.021585248
-0.021735266 -0.0058994517 0.08642357 -0.079255305 0.08555282 0.046402045 0.010973379 -0.02485393

gru.bias_ih_l0 f4 [300]
00000000: ff9b b13d 00f4 5cba 7847 cabd cc60 e73c
00000010: 94c7 f8bc accd 8abc e7ce 32bd 06ad 06bd
00000020: 7ec4 093d 98ac 3cbc 40b5 5a3c 63fa bfbd
00000030: e724 c1bd 9d91 36bd 4255 5d3d 6053 9fbb
00000040: 187b 00bc 11b3 b63d 69b0 8f3d d46a ebbc
00000050: 0062 833c 19ed 9d3d 816d 983d 0a72 54bd
00000060: e0dd dcbc edb7 ae3d cf33 bb3d fcb5 04bd
00000070: da27 32bd 6c0b 87bd 4a7f 273d 33d2 803d
00000080: 5734 57bd 4242 1f3d a233 323d 94bf dfbc
00000090: 379a b13d d8b0 0b3c 68ff 86bc 3eb2 033d
000000a0: b8e6 c7bd 36fd 9dbd 86d5 82bd 9ced e03c
000000b0: e941 bc3d 3021 cabb d8ca 7c3c 62ce 5a3d
000000c0: 4583 cb3d 38a6 97bd 10fc 613c 90a0 5a3c
000000d0: 2e7c 4a3d 32d1 203d 7a2f 08bd fa40 2e3d
000000e0: d76c c93d eadb cbbd 430f 983d 007b 2eba
000000f0: 4832 c5bd 54ce 9f3c f6d7 183d 2012 873c
00000100: 00e5 133c cceb de3c d9ea a83d 7057 20bd
00000110: 032b 9a3d 3208 babd 8792 ba3d 802b f9ba
00000120: 8182 a43d 109e a7bd 1326 5fbd 5d9d 973d
00000130: 202e 25bd 8e49 9cbd d893 94bc c87c fcbc
00000140: 80c8 b83c 5232 81bd 0056 5dbb 8030 b9bb
00000150: 500d bdbb 00a8 08bb 6574 81bd 1ac8 62bd
00000160: 7bc5 bdbd 0013 a9bc cf68 be3d 514d c13d
00000170: 7961 9d3d f751 c43d fcf6 0abd 227b 97bd
00000180: 4001 cfbc d863 cabd 1a12 313d 0a05 2e3d
00000190: 624e 493d a61e 773d 4a72 013d ea12 07bd
000001a0: cb54 b13d f4d4 e0bc 0a4f ccbd 02c5 2f3d
000001b0: 44b2 ee3c c736 8c3d c3b5 c3bd d7db 25bd
000001c0: c28c 063d 77c8 bdbd 0288 183d 8df8 a23d
000001d0: d4dd a53c d363 cbbd 9099 51bc f62a 18bd
000001e0: c03e 65bd 34f7 babc 5802 61bc 7d89 9d3d
000001f0: 4ec0 2e3d ddf6 46bd c3ca bbbd 63d8 bf3d
00000200: a006 a8bd e401 e83c 770f 5abd 00a6 a73b
00000210: 67ed b1bd e68f 093d bfde 813d 723b 5e3d
00000220: 502e 483c d24a 613d aaa8 81bd cb54 94bd
00000230: 25cf 9e3d a282 243d e0e5 bc3c 68ce 2c3c
00000240: ec76 d13c a897 133c 7178 813d 1a5b 84bd
00000250: 4197 9c3d 3463 fa3c 21a9 bf3d 278f 73bd
00000260: 2168 b03d 5ba7 c63d 4552 93bd 42f9 623d
00000270: 4eb6 9bbd ba43 34bd ba60 94bd a0aa 213b
00000280: 8756 29bd d347 2cbd 20a4 e9bb f3f4 c93d
00000290: 6b15 bf3d 8095 0f3a d8f9 c7bd 40ba 06bc
000002a0: 4e39 023d 37c5 953d 652d afbd f0c0 0dbd
000002b0: e851 ac3c b5e3 cbbd ca5f 6c3d ef1f bb3d
000002c0: 9dd0 5ebd 4ec9 773d 859d 873d b8b7 f2bc
000002d0: c8a4 b03c 9ad0 bbbd 2847 ae3c 2025 84bc
000002e0: fa90 89bd 6cff b9bc 7a39 24bd ec5b 9bbc
000002f0: 4000 20bc e2a2 143d 327b 133d 8052 ec3b
00000300: a81e bbbc a7fc a03d c57b b7bd 7ae3 b7bd
00000310: 60f3 d0bc b6f1 3e3d 208e ea3b 09ab 853d
00000320: c094 403c c009 3a3c f2a9 3e3d 50d1 9abb
00000330: f13c 983d db25 9d3d ea1f 64bd 07d1 9f3d
00000340: 58e1 2dbc 70a3 c0bd 6534 823d 6854 ab3c
00000350: ccc5 d7bc 9482 fd3c ecd9 fabc e849 92bc
00000360: 02ba 6e3d 4079 a8bd 2e79 353d 6b6f 8c3d
00000370: 9c25 0cbd d393 963d d125 8a3d 1ae0 babd
00000380: 99e3 923d 16d3 1c3d c0c6 b5bc 4829 ccbd
00000390: 407a 6ebc a4e3 cd3c 3d96 8f3d 60c6 4e3b
000003a0: 9ac5 7d3d 5c44 16bd 983b 67bc fbef 8f3d
000003b0: 904d 56bd 9a72 b3bd e0ae 6cbd 2891 8c3c
000003c0: a5d9 adbd 2846 a93c e0a7 8fbc fec4 0c3d
000003d0: 90de 5ebd ac4d dabc 7265 0f3d 62f1 4d3d
000003e0: 3d9f 9ebd 15b7 ae3d 0fff a73d c9d7 9a3d
000003f0: 8958 953d 809c ad3b e1ff b93d 9578 923d
0.08672332 -0.0008428693 -0.09876913 0.028244399 -0.030368604 -0.016943775 -0.04365435 -0.03287985
0.033634655 -0.011515759 0.013348877 -0.09373929 -0.09430867 -0.04457246 0.054036386 -0.004862234
-0.007841848 0.08920873 0.070160694 -0.028737463 0.016037941 0.077112384 0.07442761 -0.05186657
-0.026961267 0.08531175 0.09140741 -0.032400116 -0.043495037 -0.065939754 0.040892877 0.06290092
-0.05254015 0.038881548 0.043506272 -0.027313031 0.08671992 0.00852605 -0.016479209 0.032152407
-0.09760803 -0.07714312 -0.063883826 0.027457051 0.09192259 -0.006168507 0.015429221 0.05341948
0.09937147 -0.074047506 0.013793007 0.013343945 0.049434833 0.039262004 -0.033248402 0.042542435
0.09835213 -0.09954055 0.07424786 -0.00066559017 -0.09628731 0.019507565 0.03731533 0.016488135
0.009026766 0.027212046 0.08247919 -0.039145887 0.07527735 -0.090835944 0.09109979 -0.0019010156
0.08032704 -0.08184445 -0.05447967 0.074030615 -0.04032719 -0.07631217 -0.018136904 -0.03082122
0.022556543 -0.06308426 -0.0033773184 -0.0056515336 -0.0057694092 -0.002085209 -0.063210286 -0.055366613
-0.09266182 -0.020638943 0.092973344 0.09438575 0.07684607 0.09585946 -0.03392695 -0.073965326
-0.02526915 -0.09882325 0.043230154 0.042485274 0.049147017 0.060331963 0.031603135 -0.032977022
0.08658751 -0.027445294 -0.09976013 0.04291249 0.029137738 0.068463854 -0.09556153 -0.04049286
0.03284908 -0.09266751 0.037239082 0.079575635 0.020247377 -0.09931149 -0.01279296 -0.037150346
-0.055968046 -0.022822954 -0.013733469 0.076922394 0.042663865 -0.04857527 -0.09169533 0.09367444
-0.082043886 0.028321214 -0.053237405 0.0051162243 -0.08687859 0.033584498 0.063413136 0.05425591
0.012218073 0.055002995 -0.06330998 -0.072427355 0.077543534 0.040163644 0.023058832 0.010547258
0.025569402 0.009008326 0.063218005 -0.06462689 0.07646037 0.030564882 0.09358431 -0.059462693
0.08613611 0.09699889 -0.07193426 0.055413492 -0.07603131 -0.0440099 -0.07245012 0.002466835
-0.041342285 -0.042060684 -0.007130161 0.098611735 0.09330257 0.00054772943 -0.09764451 -0.008223116
0.03179293 0.07313006 -0.0855358 -0.034607828 0.02103515 -0.09955541 0.05770854 0.0913695
-0.054398168 0.060494713 0.06621841 -0.02962862 0.021562949 -0.09170647 0.021274164 -0.016130984
-0.06717105 -0.022704802 -0.040093876 -0.01896473 -0.009765685 0.03628815 0.03600616 0.007211983
-0.022841766 0.078606896 -0.08959154 -0.089789346 -0.025506675 0.046617232 0.007158056 0.06526763
0.011754215 0.011354864 0.04654879 -0.004724659 0.07433499 0.07673236 -0.055694498 0.07803541
-0.010612808 -0.09406173 0.0635765 0.020914271 -0.026339434 0.030946054 -0.030621491 -0.017857507
0.05828286 -0.082262516 0.04430502 0.06857189 -0.034215555 0.07352414 0.06745494 -0.09124775
0.07172317 0.038287245 -0.022189498 -0.09968811 -0.014555514 0.025132962 0.070110776 0.0031551346
0.061956026 -0.036686286 -0.014113329 0.070281945 -0.052320063 -0.08762093 -0.05778396 0.01715906
-0.08488778 0.020663336 -0.017536104 0.034367554 -0.05441147 -0.026648365 0.035008855 0.05027903
-0.07745216 0.08531014 0.082029454 0.07560689 0.07292277 0.0052981973 0.09082008 0.071519054

gru.bias_hh_l0 f4 [300]
00000000: 0314 96bd c6d6 113d f477 e5bc 8aef 39bd
00000010: 8053 8e3a 568d 7e3d 63e3 a0bd a2a6 2b3d
00000020: b46b ff3c 8e71 213d c7e4 21bd 5975 9d3d
00000030: e691 653d 6db6 c8bd 23f7 873d 1229 093d
00000040: b9f4 8f3d f382 a1bd fa21 63bd 2c11 e73c
00000050: 189f 493c c0c1 883c 9baa a13d d225 793d
00000060: 7ac5 b2bd 2a76 1abd e52d a13d 8daa a2bd
00000070: a7e3 bc3d 50b3 c6bb 2de3 3abd a8ac 87bc
00000080: edaa 933d 07b9 ab3d 0d5f a93d 2c1c d13c
00000090: 9700 75bd 1df0 2abd c0ff 493b a206 bfbd
000000a0: da29 a4bd 188a 53bc 2aa3 6abd f095 a3bd
000000b0: f80e 8bbc 0336 20bd c55e ac3d cd70 b03d
000000c0: 305e 4ebc 6775 c4bd b242 b5bd e52f b73d
000000d0: b0be 433c 6860 7c3c 97a5 c5bd eae1 37bd
000000e0: c0c5 2a3c 4192 883d e1c7 a63d 496c c73d
000000f0: b2f9 6c3d b362 c0bd 0a11 9cbd 1034 a8bd
00000100: 2294 4c3d b381 9dbd e87a acbd a8a4 a4bc
00000110: 603b 8abd 5a77 8ebd 3a97 c7bd 6800 c8bd
00000120: b7dc 70bd 224f 1b3d d4de 8a3c 40b2 11bb
00000130: 43a7 38bd 8d76 a9bd 9090 20bd a003 813c
00000140: 483c 9bbc 00cd adbd 808a 2cbc 77df 42bd
00000150: aebe 6c3d c8e0 c5bc e8a0 733c 0f0e b0bd
00000160: a18b 9b3d 4a07 343d 6aa1 06bd e621 263d
00000170: 60cb 7cbb d7d4 903d 8819 af3c a07f 92bc
00000180: 8095 d5bc 75ba 893d 1688 8abd 02a8 203d
00000190: 90d3 b3bd cd89 9dbd 2c07 f03c 90c6 1cbd
000001a0: d1aa c03d 4e2a 783d ddea bcbd 8aae a4bd
000001b0: 74fc 08bd 925b 503d 96bf 403d 32bc 673d
000001c0: 7cf2 e13c 747c f63c c00a 133c f898 bfbc
000001d0: e9c4 8e3d 0284 4e3d 104c 753c 6a2d 663d
000001e0: 6c58 b73c 17bc 903d b097 d0bb 6e49 743d
000001f0: 74e9 95bc 4f50 943d c846 f3bc a0d9 01bd
00000200: 28bb 36bc e7a4 52bd 9845 0d3c 941a e1bc
00000210: 7027 b6bd 2076 ddbb 8500 c13d b00b 8ebb
00000220: adf7 4cbd 2a6b 013d 8402 87bd 5214 763d
00000230: 1176 ca3d 90f6 31bd 329f 4b3d 6e6b 4f3d
00000240: bf67 8f3d 809d 2bba 507f 1cbc f21a 3b3d
00000250: 06ba 793d 4d62 83bd ab8b b4bd de6a 143d
00000260: cbea 92bd 3899 9dbd 6cc2 e43c d028 913b
00000270: e20b 82bd 1888 143c 223b 3f3d acfd 993c
00000280: 5910 c63d ccc6 00bd 2ba9 843d de29 7f3d
00000290: c0d2 87bd 202e c7bc 6c77 e3bc 8b1d a7bd
000002a0: 145c febc b32b 1ebd aafe 2b3d f4e6 05bd
000002b0: 03d2 35bd 6088 fabc 27d8 ba3d 19f0 c03d
000002c0: 9b3b 803d 02a1 553d 749d a7bc 8c3c e43c
000002d0: a0e8 003b 97ea 1abd f93c 823d 28bc 76bc
000002e0: 2413 ff3c cd0e bbbd f7e2 acbd 770c 28bd
000002f0: 3ea5 9fbd 9a73 30bd 5d93 c03d 6e69 98bd
00000300: 8d73 843d 279a b7bd 0a54 b5bd 59cd af3d
00000310: 3709 6abd ec0d d6bc 2919 b93d ca8f 30bd
00000320: e830 f7bc c042 183b 3fb3 8a3d d2ad 433d
00000330: d4e5 a83c 007a fe3b 5156 993d a031 02bd
00000340: c53d a83d 576b 7abd c8f4 99bc 87d7 cb3d
00000350: fe81 653d ae11 423d 8e7d 2f3d 579e 903d
00000360: 5798 863d 7dc8 4fbd 5397 ab3d 0537 ac3d
00000370: f0d3 12bd 1831 9bbd cafa 103d e813 273c
00000380: c1d2 c13d c284 1b3d 1b52 95bd 7071 4ebc
00000390: 043c ff3c 4c99 b8bc d39e 9abd b08a 30bc
000003a0: a8b8 8bbd c070 18bc bd9c 94bd 78a0 debc
000003b0: ccdc bebc 228f a5bd 3382 bfbd b043 4abc
000003c0: 293b a73d e98f b93d 04a6 d43c 91fb c33d
000003d0: 2c65 833c fa10 a0bd 20f1 b0bc 1af0 1bbd
000003e0: ed14 5ebd c0c0 c0bc b42a dcbc 9390 a43d
000003f0: 19db a53d 5eed 183d c747 c6bd ec01 f5bc
-0.07328036 0.035605215 -0.0280113 -0.045394458 0.0010858625 0.062146507 -0.078558706 0.04190696
0.031179287 0.039414935 -0.03952482 0.07688398 0.056047343 -0.0980042 0.066389345 0.033486433
0.07029099 -0.07886305 -0.055452324 0.02820643 0.012305997 0.01669395 0.078938685 0.060827084
-0.08729072 -0.037710346 0.07870082 -0.07942686 0.09223109 -0.006063856 -0.045626808 -0.016561821
0.07210336 0.083849005 0.082700826 0.025526129 -0.059815016 -0.041732896 0.0030822605 -0.09327437
-0.08015795 -0.012911342 -0.05728451 -0.07987583 -0.016974911 -0.03911401 0.08416513 0.08615265
-0.012595698 -0.09592705 -0.08850612 0.08944682 0.011947319 0.015403844 -0.096507244 -0.044893183
0.010423124 0.06668521 0.081435926 0.09737451 0.057855316 -0.093938254 -0.076204374 -0.08213055
0.049945958 -0.07690754 -0.0842188 -0.020098045 -0.06749606 -0.06956358 -0.09745641 -0.097657025
-0.05880424 0.037917264 0.016951956 -0.002223149 -0.04508139 -0.08274565 -0.039200366 0.015748799
-0.018949643 -0.08486366 -0.010531068 -0.047576394 0.057799034 -0.024155036 0.014869906 -0.085964315
0.075949915 0.043952264 -0.03286878 0.04055967 -0.003857337 0.07071846 0.021374479 -0.017883122
-0.026072264 0.06725017 -0.067642376 0.039222725 -0.08780587 -0.07692299 0.029300295 -0.0382753
0.09407581 0.06058722 -0.09224484 -0.08041103 -0.033443883 0.05086858 0.04705771 0.05657596
0.027581446 0.03008864 0.008974731 -0.02338837 0.069711514 0.05041886 0.014971748 0.056195654
0.02238103 0.07067125 -0.006365739 0.05964034 -0.018299796 0.0724188 -0.029696837 -0.031701684
-0.01115302 -0.051426794 0.0086225495 -0.027478494 -0.08894241 -0.0067584664 0.09423927 -0.0043348894
-0.05004089 0.03159634 -0.06592277 0.060077973 0.09885801 -0.04344803 0.049712367 0.050639562
0.0700221 -0.00065466017 -0.009551838 0.045679994 0.06096842 -0.06415234 -0.08815702 0.03623473
-0.071736895 -0.0769524 0.027924739 0.004429914 -0.06349923 0.00906565 0.046687253 0.018797718
0.09671087 -0.031439587 0.06477579 0.062295787 -0.06631994 -0.024313986 -0.027766906 -0.08159932
-0.031049766 -0.038615894 0.041990913 -0.032690957 -0.044389736 -0.030582607 0.09123259 0.09420795
0.06261369 0.052155502 -0.020460822 0.027860902 0.0019669905 -0.03782138 0.06359286 -0.015059508
0.031137057 -0.091336824 -0.084417276 -0.041027512 -0.07795189 -0.043078996 0.09403107 -0.07441984
0.06467352 -0.08964949 -0.0885392 0.08584089 -0.057137694 -0.026129685 0.09038002 -0.043105878
-0.030174688 0.0023233145 0.0677247 0.04777319 0.020617403 0.0077660084 0.07487167 -0.031785607
0.082149066 -0.061137524 -0.018793479 0.09953218 0.056032173 0.047380142 0.042844348 0.07061451
0.06572025 -0.05072831 0.08378472 0.08408932 -0.03584665 -0.07577723 0.03539542 0.010197617
0.09464026 0.037968405 -0.07291051 -0.012600288 0.031156547 -0.022534035 -0.075498246 -0.010775253
-0.0682233 -0.009304225 -0.07256458 -0.027176127 -0.023298644 -0.08083941 -0.093510054 -0.0123452395
0.08165581 0.09060652 0.025958069 0.09569467 0.016039453 -0.07815738 -0.021599352 -0.038070776
-0.054219175 -0.02352941 -0.026875831 0.08035388 0.0809843 0.037335746 -0.09681659 -0.029908143

fc.weight f4 [1, 100]
00000000: c821 bb3c 3f91 813d 179d 67bd a6c3 213d
00000010: acd2 d53c 9898 86bc 1da4 88bd fdd0 ca3d
00000020: b597 a33d c229 103d 2816 bbbd 19d1 a93d
00000030: 25c5 aebd 2013 49bd f47e d13c 249c d93c
00000040: b301 63bd e048 73bd 8048 97ba 6778 823d
00000050: 92ce 2a3d 9424 9cbc 9010 7bbc 12a0 b2bd
00000060: afd9 a13d 75c3 a8bd e0b0 91bb 0c01 9bbc
00000070: 6de4 1fbd 8811 b1bc 6c7c 803c aa21 b1bd
00000080: 65d2 9e3d ba2d 653d 78a7 bc3c 6f91 be3d
00000090: 407e 5d3c 0058 80bc 191f 853d d42b 92bc
000000a0: 765e a5bd 5ba0 8d3d 91c2 923d 4226 c7bd
000000b0: 026d 273d 0288 8dbd ed0b 55bd 148a 98bc
000000c0: 0cb6 ccbc e8c4 013c 106f 4cbd e4e3 d73c
000000d0: cadc a3bd 8089 e9bc 28a2 2f3c f8bc a83c
000000e0: 0fe8 b13d 1e39 1f3d 959c 9bbd 8032 6abc
000000f0: 83a3 863d b8d5 c3bd 6e80 84bd c0fe 0c3b
00000100: 8282 aebd a88d 9abc f82c 81bd 2c82 863c
00000110: 547d e33c 9e1d 503d 70e8 7bbc 7c6c d53c
00000120: 50da 41bc d8c2 93bd d6e0 96bd ee60 8abd
00000130: 43ba c03d eb7f a73d d0a0 c4bd 41db bd3d
00000140: 60ac 1abb 019a 8e3d 0252 263d a0ec fabc
00000150: b0b3 9d3b 867f 2e3d a709 8b3d a01b 2abd
00000160: 4f6b bebd a2d0 8abd a089 403b 000f 293c
00000170: ea41 7dbd f740 60bd 8dd9 65bd 5edc 0e3d
00000180: 1adb 033d 6a7b 013d 7e11 a6bd 8d17 bc3d
0.022843257 0.063265316 -0.056546297 0.039493226 0.026101433 -0.016430184 -0.06671927 0.099031426
0.0798792 0.035196073 -0.09135085 0.08291835 -0.08533696 -0.049090505 0.025573231 0.026563711
-0.055421542 -0.05939567 -0.0011541992 0.06370621 0.041700907 -0.01906041 -0.015323773 -0.08721937
0.07902848 -0.082404055 -0.004446134 -0.018921398 -0.039036203 -0.021614805 0.015684329 -0.08648999
0.07754973 0.05595181 0.023029074 0.09305083 0.01351887 -0.015666962 0.06500072 -0.017843165
-0.080746576 0.06915351 0.07166017 -0.09724094 0.040875442 -0.06910707 -0.052013326 -0.018620528
-0.02498915 0.007920481 -0.049910605 0.026353784 -0.080010965 -0.028507948 0.010719813 0.02059792
0.0868684 0.03887283 -0.07598225 -0.014294267 0.06574156 -0.09562248 -0.064698085 0.0021514148
-0.08520986 -0.018866375 -0.06307405 0.016419493 0.027769722 0.050809495 -0.015375242 0.026052706
-0.011831835 -0.07214898 -0.07367103 -0.06756769 0.094105266 0.08178695 -0.09600985 0.09270335
-0.0023601279 0.06962968 0.040605552 -0.03063041 0.00481268 0.042602085 0.067889504 -0.04153025
-0.09297811 -0.06778075 0.0029378906 0.010318518 -0.06183044 -0.054749455 -0.056115676 0.034878127
0.032191373 0.031611837 -0.08108805 0.091841795
