savemodel/model_gru.pth (torch, 132508 bytes, 5 tensors)

gru.weight_ih_l0 f4 [300, 6]
00000000: 0cfd afbc 1db6 50bd d4f8 b33c 7019 0dbd
00000010: eaeb 6f3d 4a50 71bd 80fb b6bb 8604 723d
00000020: 335a 823d ae71 9bbd ecc6 c5bc 412f a33d
00000030: 0837 8bbd caf0 84bd a8e6 503c 74d9 abbc
00000040: 0080 843a 52cc 1b3d 7866 b4bd 10a7 64bc
00000050: 7f66 b6bd a7ca 4ebd db5e c7bd 4e15 6e3d
00000060: 9641 053d d872 62bc 4558 b8bd 5865 a9bc
00000070: a08d 2cbb 3433 a33c 9e7f a7bd 50b6 cdbb
00000080: 9866 4b3c 5815 debc 0058 a8bc 2ac1 26bd
00000090: 488d 8cbc 388b efbc 3f30 b3bd 5408 c83c
000000a0: 40c4 41bd 98c4 8abc 54ad a1bc 2022 53bd
000000b0: c43a 84bd db45 b93d b571 923d c09d 463b
000000c0: a57d bd3d f702 c5bd ffc4 afbd 2662 6c3d
000000d0: b354 9bbd f871 cebc 23cd 41bd 30f5 7a3c
000000e0: 4290 143d 2c06 b6bc 3ca3 02bd 800d d8bb
000000f0: 006d 72bb 982b c73c e0a7 dabb 12d5 3c3d
00000100: ec65 8b3c bca4 15bd 3d88 a13d 8922 993d
00000110: f988 a43d 9222 183d 4959 c43d b803 b9bd
00000120: 806d 823c f0cc 0d3c 96d1 7b3d 34c6 83bc
00000130: f4e3 e13c 8d36 65bd 5810 debc b586 acbd
00000140: efa5 bbbd 0de5 30bd 296c 9b3d 5096 69bd
00000150: 209f 9e3c b365 1fbd 306c bebd d8e1 c3bc
00000160: d83e f2bc 008c 1b3c 204e 873b 6078 83bb
00000170: 8099 573a 510c b23d b647 99bd a4e1 f13c
00000180: 42bf 5b3d 1832 8e3c 3fb2 bebd 6251 113d
00000190: 4a14 aabd b91a 893d 6af5 28bd 6886 a1bd
000001a0: 402d b2ba 9610 81bd c1f0 ca3d c9da ca3d
000001b0: ee11 a6bd c0ca 9f3a a293 413d d135 a43d
000001c0: cf69 c9bd 9ae3 22bd e87b 6c3c b112 993d
000001d0: d652 0bbd 2289 093d ca5c 6bbd d303 93bd
000001e0: eca2 8dbc 3196 be3d 6a41 033d c646 acbd
000001f0: a3cb a23d da67 7e3d 5d31 a93d 45aa bc3d
00000200: 5081 8abb 572b b93d 8947 8d3d f525 ca3d
00000210: 9c5d fe3c 6a53 453d 60d7 b7bc 2090 ea3b
00000220: f296 7e3d 801f 0cbd 70d4 9abd 5f85 afbd
00000230: f33f 33bd 0024 b73a fa4f 69bd 98c8 00bc
00000240: d910 803d 6294 503d 52e2 043d 28ee 013c
00000250: 5708 64bd 97f4 3cbd f0c1 9cbd 8a8b 063d
00000260: 20e2 74bd 7d5d 54bd 00ca b2bc 9a33 13bd
00000270: ca46 543d 601c 5bbb 1818 09bc 80f5 acbd
00000280: a18b b83d 71cc 863d c0db 15bb 20f9 e6bb
00000290: 8c1e bd3c d8bd ccbc 27d5 b93d f389 1dbd
000002a0: e81e 50bc 00ba 15b9 f039 383c 33ea 79bd
000002b0: 6b58 ae3d 7645 283d 58f4 23bc badc 0e3d
000002c0: ebd5 a3bd 3e1c 353d ebc4 813d d056 0d3c
000002d0: 68a2 0d3c 20ea e53b 10c8 57bc 67e5 22bd
000002e0: 480b 9c3c 8767 46bd 900b 13bc 7104 9b3d
000002f0: 3089 a9bb 2bab a6bd d67c 3a3d 5ae4 7a3d
00000300: 1fce c9bd 14cc 88bd f0c1 75bd 2095 a0bb
00000310: 7123 a63d 3ab8 2d3d e24a 423d d0f0 d53b
00000320: 5d08 be3d f4da fe3c b436 abbc db2e b6bd
00000330: 7134 ad3d 1938 bd3d 354e acbd 0098 3eba
00000340: 7539 8abd e2cb 003d b7f7 b0bd e818 c7bc
00000350: 7ab9 cabd 961e 06bd 4167 8e3d 2114 aa3d
00000360: 70ba 04bc 1868 49bc da99 243d 283d 3fbc
00000370: 9041 713c f337 a93d 10ad 443c 3f78 ba3d
00000380: 774c bebd decf 303d 1d45 51bd a08e fcbc
00000390: f5be 8ebd 1709 bf3d 0202 633d c0c3 86bd
000003a0: 4e42 8fbd 24c8 d53c fa77 5abd 48a8 86bd
000003b0: 2064 c4bc 5d6c 99bd 0056 3ebd bac3 b0bd
000003c0: 981e 383c b2da 0e3d eeea 1a3d e0cf fbbc
000003d0: 2dc4 9e3d 3add 6fbd 02b1 2f3d e277 5a3d
000003e0: 7367 babd 80ec 973c c3c8 34bd e39c b33d
000003f0: 7319 69bd 32ba 4f3d 4a2d 4e3d 0071 953c
-0.021482967 -0.050954927 0.021969236 -0.034448087 0.058574595 -0.05891446 -0.0055841804 0.059086345
0.063648604 -0.07590042 -0.024142705 0.07967997 -0.06797606 -0.06491239 0.012750305 -0.020977713
0.0010108948 0.038036652 -0.08808607 -0.013955846 -0.08906268 -0.050486233 -0.09734889 0.058125786
0.03253325 -0.013821326 -0.09001211 -0.020678207 -0.0026329532 0.019921876 -0.08178638 -0.006277837
0.012414597 -0.027109787 -0.020549774 -0.04071156 -0.017157212 -0.02924119 -0.087494366 0.024418034
-0.0473063 -0.016939446 -0.01973597 -0.051546216 -0.06456521 0.09046527 0.07150594 0.0030306429
0.092524804 -0.09619706 -0.08582496 0.05771079 -0.075845145 -0.025200829 -0.047314774 0.015317246
0.036270387 -0.02221974 -0.031893954 -0.006593406 -0.0036991239 0.02431278 -0.0066728443 0.046101637
0.017016374 -0.036534056 0.078873135 0.0747729 0.08033938 0.037142344 0.09587342 -0.090339124
0.015921354 0.008654818 0.061479174 -0.016085722 0.027574517 -0.055960227 -0.027107403 -0.08424131
-0.09162509 -0.04318719 0.07588989 -0.057028115 0.019362986 -0.038915347 -0.09297979 -0.023911402
-0.029570982 0.009493828 0.0041291863 -0.0040121526 0.00082244724 0.086937554 -0.07484381 0.02952654
0.053649195 0.017357871 -0.093113415 0.035478003 -0.08304651 0.0669455 -0.04124967 -0.07886964
-0.0013593808 -0.06301992 0.099092014 0.09905011 -0.081088886 0.0012191162 0.047259934 0.08018077
-0.098346345 -0.03976784 0.014433838 0.07474268 -0.034014545 0.033578046 -0.057461537 -0.07178464
-0.017289601 0.093059905 0.032044806 -0.084119365 0.07948997 0.06211076 0.082613684 0.09212164
-0.004226841 0.090414695 0.0689841 0.09870521 0.031050496 0.048175253 -0.022441566 0.0071582943
0.06215567 -0.03420973 -0.075600505 -0.085703604 -0.04376216 0.0013972521 -0.056961037 -0.007860325
0.062532134 0.05092276 0.0324424 0.007930316 -0.055672016 -0.046131697 -0.07654178 0.03284792
-0.059785962 -0.05184697 -0.021824837 -0.035937883 0.051825322 -0.003343366 -0.008367561 -0.08445263
0.09011007 0.06581963 -0.0022866577 -0.007048741 0.023085855 -0.024992868 0.09073859 -0.038461637
-0.012702681 -0.00014279038 0.011244282 -0.061014365 0.08512958 0.041081868 -0.010006987 0.03487847
-0.07999786 0.044216387 0.06336387 0.008626655 0.008644678 0.0070164353 -0.013170257 -0.039769556
0.019048348 -0.048438575 -0.008974925 0.075692065 -0.0051738247 -0.081381164 0.04552921 0.06125293
-0.098537676 -0.0667955 -0.059999406 -0.0049005896 0.08112229 0.04241202 0.047434695 0.006528951
0.09278939 0.031110264 -0.020900108 -0.08895656 0.08457268 0.092392154 -0.08413354 -0.00072705746
-0.0674924 0.031444438 -0.08640998 -0.024303868 -0.09898658 -0.032744013 0.06953288 0.083046205
-0.008101091 -0.012292884 0.040185787 -0.011672296 0.014725104 0.082626246 0.012004152 0.09104966
-0.09291928 0.043166988 -0.051091302 -0.030829728 -0.06970016 0.093279056 0.055421837 -0.06580305
-0.069950685 0.026096411 -0.053337075 -0.06575066 -0.023973525 -0.07491372 -0.046468735 -0.08631082
0.011237763 0.034876533 0.037821703 -0.030738771 0.07752261 -0.058560587 0.042893417 0.053336985
-0.091017626 0.01854539 -0.044136774 0.08770158 -0.056909036 0.05071468 0.05033616 0.01824236

gru.weight_hh_l0 f4 [300, 100]
00000000: f074 003c d83b 2f3c 2f15 bd3d e191 ac3d
00000010: 416b cb3d d870 2cbc 80a5 fc3a 9eaf 203d
00000020: eeeb 003d da8c 6dbd 8c0d 8cbd 4c21 953c
00000030: 005c 2f3b ec59 e03c faec 7cbd 6818 203c
00000040: aaf0 a3bd 941a 05bd d0ad 2cbd 58d3 833c
00000050: fa76 c7bd ace2 883c 9a27 2fbd 2ff5 c3bd
00000060: 532c c1bd 9b4e 99bd 3c43 88bd 82da 2e3d
00000070: 8ac7 73bd 81e1 9e3d 97ce b6bd 2509 86bd
00000080: 38e7 84bc 17ad 47bd c067 78bb 14bc d5bc
00000090: 4a3c 73bd abe4 a83d b2e9 783d cc12 e0bc
000000a0: 2a78 41bd 98e5 babc 4c3e adbc 3259 173d
000000b0: 20b2 9a3b 866b 203d 0016 c93c 46cf 0dbd
000000c0: ae99 753d ebab a63d e868 2e3c 0847 b4bd
000000d0: 3d88 bdbd cd44 77bd e213 82bd 3853 ab3c
000000e0: 2015 b3bd 9d2e 9bbd d0d2 df3b 80a0 f5bb
000000f0: 1390 bd3d d07d 48bc 7e5a 193d 80d3 b93a
00000100: 8cbb b3bc f0ce 6f3c 804f c7bb 40b5 1cbb
00000110: 50cd 38bc 42ac 363d 72a5 153d d033 35bc
00000120: a0cb e7bc 40bb 63bd 77ed 4bbd 357f b93d
00000130: 0453 12bd 7878 c53c 9207 2a3d cd19 30bd
00000140: 66d6 0d3d 0d1f 953d a851 f6bc 6234 533d
00000150: c36c 31bd 68ed b2bc df41 903d ad4f b9bd
00000160: 2ccc e8bc d09a 013c f5b7 b93d 501e a9bd
00000170: 087c d4bc 8088 89ba c2e2 2b3d 2aa3 1a3d
00000180: 36d2 653d 3245 2b3d cd36 cbbd 12b0 87bd
00000190: e94a bc3d 8f48 873d 22a7 5e3d 42f2 783d
000001a0: 2320 90bd 8744 48bd da9b 35bd 339c c73d
000001b0: f68a 363d 6a43 533d b4ae b4bc 5635 80bd
000001c0: 7768 32bd c074 153b 5a9c 92bd 271a c53d
000001d0: 92dd 353d aa5f 6bbd 98ab 6fbc 106a 82bd
000001e0: fac2 6abd 6353 68bd 829e 7e3d 60ed c8bc
000001f0: 3750 51bd 8055 983b 8912 a43d 5218 1f3d
00000200: 2255 2d3d 639e 5dbd e436 03bd 26e1 3c3d
00000210: 98f9 803c 5701 ab3d 8c9a 833c 1033 88bd
00000220: 52f1 313d be33 183d 35c6 c03d ca53 40bd
00000230: 2da3 8ebd 9ed5 523d 20c8 8a3b a691 0d3d
00000240: 1886 e9bc 9203 3a3d 0556 963d 5f73 9f3d
00000250: 8aa2 3a3d 56ac 0ebd 1819 d8bc e265 aebd
00000260: 8cf0 803c 58ef 153c 21d0 893d ddd3 a6bd
00000270: 4315 69bd 3b54 c03d d6fe 4f3d 7499 92bc
00000280: 008a 58bb 5010 74bd d461 fe3c c04e d23a
00000290: 9f3d c23d 5b7b bc3d 7298 81bd b730 a63d
000002a0: 693c 873d a767 4abd ba53 9abd 80cd 1a3c
000002b0: bb47 9d3d 8c36 eb3c 47f2 34bd 17b9 6fbd
000002c0: 029a 6a3d 7efd 82bd c7ff 39bd 00fc 41bd
000002d0: f103 903d 7ce2 f13c 689e f7bc 347a 0ebd
000002e0: f240 273d 3098 b43b 6093 89bd c0c0 9c3c
000002f0: 8d81 c23d 9083 6abd ecdb a7bc dc50 d83c
00000300: 8471 19bd d2a8 103d 00b8 ebb8 b06d c1bd
00000310: 8aea 0b3d 8078 8e3c 72d1 1a3d c4cb fd3c
00000320: 8879 9bbc 98f5 86bd 8cfa 89bc 3b39 c5bd
00000330: 6d69 b23d d926 c23d 5dd6 c9bd aadd 97bd
00000340: 0051 18bc 80a6 36ba 6217 053d 094f 8a3d
00000350: 2a92 87bd 3e94 753d 373b cc3d 826c 413d
00000360: b258 453d 40f9 01bc 3803 b03c 2a55 3dbd
00000370: c027 5c3c 713a ab3d 40b6 543b e01b e5bc
00000380: a530 a6bd 3390 56bd 88c2 90bc c7ef b73d
00000390: 00ef 593a bd5c 1dbd 981d 5e3c a071 72bb
000003a0: 1475 df3c 90a2 083c b0c8 fcbb fa7f 29bd
000003b0: 60ab f9bb 0ae5 103d 873b 8c3d d6b6 513d
000003c0: 0acb 49bd a485 d43c 2c87 df3c 940b 893c
000003d0: 75e2 c13d 4138 9c3d 945a edbc 8176 943d
000003e0: f49c 8abc a58c cabd 02d4 133d 3674 1e3d
000003f0: 8974 a23d 2c52 ccbc 979d bc3d a5b2 86bd
0.00784038 0.01069542 0.09232556 0.08426262 0.099325664 -0.010524951 0.0019275397 0.03922998
0.031475 -0.057995655 -0.06838521 0.018204354 0.0026757717 0.027386628 -0.061749436 0.009771444
-0.080048874 -0.03249605 -0.042157948 0.016091987 -0.0973949 0.016709648 -0.042762376 -0.095682494
-0.09432282 -0.07485696 -0.06653449 0.042688854 -0.059516467 0.07757855 -0.08926123 -0.06544713
-0.016223535 -0.048749056 -0.0037903637 -0.02609066 -0.059383668 0.0824674 0.060769744 -0.027352713
-0.047233738 -0.022814557 -0.02114787 0.036950298 0.004720941 0.039165042 0.024546623 -0.0346215
0.059961013 0.081382595 0.010645129 -0.08802611 -0.09254501 -0.060368348 -0.063514486 0.020913705
-0.08744264 -0.0757725 0.0068305507 -0.0074959397 0.092559956 -0.012237027 0.037439816 0.0014177412
-0.021940015 0.01463674 -0.006082475 -0.0023911744 -0.011279419 0.04459787 0.036534734 -0.011059716
-0.028295338 -0.055598497 -0.04978701 0.09057466 -0.0357237 0.024105296 0.041511126 -0.042993356
0.034628294 0.07281313 -0.030068234 0.051563628 -0.043316614 -0.02184172 0.07043814 -0.090484
-0.02841767 0.007910445 0.0906829 -0.08257735 -0.025938049 -0.0010492951 0.0419643 0.03775326
0.056108676 0.041814037 -0.09922562 -0.066253796 0.091939755 0.06605636 0.05435861 0.06077791
-0.070373796 -0.048893478 -0.044338085 0.097465895 0.044566117 0.051577963 -0.022055961 -0.06260173
-0.043556657 0.0022805184 -0.07158728 0.09624129 0.04440076 -0.05746428 -0.0146283135 -0.06367886
-0.05731485 -0.05672015 0.062162884 -0.024527252 -0.05110189 0.0046488643 0.08011348 0.038841553
0.042317517 -0.054106127 -0.03203477 0.046113156 0.015744016 0.08349865 0.016064905 -0.066503644
0.04344303 0.03715872 0.09412805 -0.046954907 -0.06964717 0.051473252 0.0042352825 0.03456273
-0.028506324 0.04541356 0.07340626 0.07785677 0.045565166 -0.03483232 -0.026379153 -0.08515526
0.015739702 0.009151302 0.067291506 -0.081458785 -0.056905042 0.09391066 0.05078014 -0.017895438
-0.0033041239 -0.05958587 0.031052507 0.0016045198 0.094844095 0.09203216 -0.06327905 0.0811476
0.06603319 -0.049415257 -0.07535501 0.009448409 0.07679697 0.028712533 -0.044176366 -0.058526125
0.05727578 -0.06396006 -0.045409944 -0.047359467 0.07032002 0.029526941 -0.030226901 -0.03478451
0.04083342 0.005511306 -0.06717563 0.01913488 0.09497366 -0.057254374 -0.02049061 0.026405744
-0.037461773 0.03531725 -0.00011239946 -0.09444749 0.03415922 0.017391443 0.0377974 0.030980952
-0.018978849 -0.06589812 -0.016843103 -0.096300565 0.087115146 0.09480066 -0.0985534 -0.07415326
-0.009296656 -0.00069675595 0.032493003 0.06753356 -0.066196755 0.059955828 0.09972232 0.04722262
0.04818029 -0.007932961 0.02148591 -0.046223797 0.0134372115 0.08360756 0.0032457262 -0.027967393
-0.08114747 -0.052383613 -0.017670885 0.08981281 0.0008313507 -0.03841852 0.01355686 -0.0036993995
0.027277507 0.008339539 -0.0077143535 -0.041381814 -0.0076193064 0.03537468 0.068472914 0.051199757
-0.0492659 0.025942631 0.027286135 0.016729154 0.094670214 0.07627917 -0.028973855 0.07249165
-0.016920544 -0.09890107 0.03609086 0.038685046 0.079323836 -0.024941526 0.092097454 -0.065770425

gru.bias_ih_l0 f4 [300]
00000000: 1842 6e3c ecd6 b0bc e414 ec3c 435c 2abd
00000010: c29e 373d 8003 c33a 2c3a 8ebc 8b18 97bd
00000020: 38ac bfbd cf92 bcbd f42c 07bd 69cd 883d
00000030: c000 e2bc 224e 503d 0a3f 1bbd a1dd 9b3d
00000040: 465b 5e3d f087 203c 7ea2 6f3d 6fc1 943d
00000050: 2ab3 373d f437 c43c 8ac8 76bd 964d 553d
00000060: 7793 ac3d 88e2 bf3c 4ac1 1f3d 3366 26bd
00000070: 2b2c 913d c0b1 33bd 0d1b 75bd 0e07 043d
00000080: 9042 50bc dd3b 65bd f33a 1ebd 6037 1cbd
00000090: b37e 2ebd d2ef 003d 1797 23bd 4f62 b6bd
000000a0: 62fd 4f3d 83f7 ae3d 7369 a13d 5020 12bd
000000b0: f8b7 ecbc 58ba 643c a84f 723c 391f 993d
000000c0: 2ab3 50bd e035 a63c 70a7 77bd 3dcc c8bd
000000d0: 05a4 c1bd 74d1 c13c c168 a53d 08cd 82bd
000000e0: 630d 3bbd 827d b2bd cd68 3abd 9e7e 463d
000000f0: 2dc0 a13d 4b91 94bd b09a bdbb e952 a53d
00000100: 161d 663d cdeb c6bd 4006 70bb d0d0 073c
00000110: c57a 9f3d c140 b13d e817 47bc 14a4 a73c
00000120: a8a8 a3bc c391 6abd 42e3 623d 1588 953d
00000130: 808a d53b f5a7 c2bd e01f 943b 73a9 34bd
00000140: 0010 c9b9 2aa7 14bd a032 77bb abf6 c33d
00000150: 495b ae3d 6c15 8d3c 0eb2 483d ba70 01bd
00000160: 6e73 553d e5f4 a93d 320f 463d 1215 94bd
00000170: 53f2 51bd 9a61 3dbd 814c 9b3d 7ab3 9cbd
00000180: 203a b7bd 0054 473c 908c 54bc 4954 a23d
00000190: 1ac0 7abd c208 753d f597 c63d 6081 1d3b
000001a0: 2259 193d 7ae3 243d 8344 913d db56 c9bd
000001b0: c009 823c d4c4 aa3c beea 6e3d 55d1 b23d
000001c0: b498 bebc f76f 2cbd 69bf be3d f272 653d
000001d0: c0ce e7bc 8edf 103d 413f 903d 10b2 91bd
000001e0: ff80 af3d 6bd4 c7bd 06a8 a7bd b0f5 183c
000001f0: c2d1 a3bd 4c64 9b3c 1890 c1bd 34dd 90bc
00000200: d59a 9e3d 10b0 93bd 8272 7d3d 1afc 79bd
00000210: 860d 343d 80ab f83b d0c7 05bd 2a77 bcbd
00000220: 801f 69bd b831 a3bd bad2 83bd f2d0 303d
00000230: 3b00 c0bd 1c1f 0fbd 961f 563d da8d 0e3d
00000240: 1da7 65bd 38de a6bd 52e4 98bd 3acc 87bd
00000250: 3837 84bc d42c c7bc 1587 b7bd 0f52 a13d
00000260: 9d7a b93d 9253 693d dc59 f93c 0151 ad3d
00000270: fd72 38bd 347c ec3c 69fd 883d 0401 01bd
00000280: c0b6 423c 27ae adbd a327 813d 9403 b9bc
00000290: e097 3fbd 6c51 83bc f03a 783c 008b 6dba
000002a0: bd1c 22bd 20a3 bbbd 3edb 393d 0c0f ff3c
000002b0: d33b afbd f2ff 783d d01f d6bb d322 2cbd
000002c0: 5644 17bd aac5 17bd d9cb 973d cbb6 8c3d
000002d0: 63a1 3abd fd45 b6bd 205b 87bb 1821 3ebc
000002e0: be94 433d 3dbd a23d c0b4 4e3b 0c60 febc
000002f0: fe02 6c3d 70cc 15bd e8f3 b6bd 4839 f4bc
00000300: 9951 bd3d a83c d9bc 715f a83d c05f be3c
00000310: ddf9 7dbd 2268 1d3d e4c8 e13c 40ac 48bb
00000320: 688d 713c 116d 843d 08ae babd 8ba6 cc3d
00000330: 345f ebbc 0079 8fbc e3ed 5bbd bef3 2e3d
00000340: c8ed a73c 692d c13d 8ad7 1abd c723 b2bd
00000350: e0cc b93c 7aa2 76bd f0be 0d3c 59f0 863d
00000360: e8f0 5b3c 78a4 cebc 8d8d a7bd 4c38 f13c
00000370: 4c29 18bd a884 f9bc b2ff 3d3d fd34 8b3d
00000380: 6ea5 793d 14f9 edbc 0ea4 a5bd 607c dabb
00000390: f2e6 673d a898 793c 4d5e a43d f615 703d
000003a0: 9a62 133d 515f 813d 6e32 593d 33b6 2fbd
000003b0: a33b 3bbd da75 5b3d fbb4 a53d 7c79 de3c
000003c0: 4076 00bb aaa0 8bbd a0b7 7ebd 4002 e9bc
000003d0: 5290 6e3d 98ab ae3c cb93 863d 7196 bb3d
000003e0: 10c4 25bc c2f5 2d3d aa93 40bd 7d62 51bd
000003f0: b33b a03d 584b 143c e639 673d 35c2 a13d
0.014542125 -0.021586858 0.028818555 -0.041591894 0.044829138 0.0014878362 -0.017361723 -0.07377728
-0.0935902 -0.09207689 -0.033001855 0.06679804 -0.027588248 0.050855763 -0.037901916 0.07610632
0.054286264 0.009798035 0.058504574 0.07263457 0.0448486 0.023952462 -0.060249843 0.052075945
0.08426564 0.023423448 0.039002694 -0.04062481 0.070885025 -0.043870687 -0.05984025 0.03223329
-0.012711182 -0.055965293 -0.038630437 -0.038138747 -0.0426013 0.03147871 -0.039939012 -0.089054696
0.050778754 0.08543303 0.07881441 -0.035675347 -0.028896317 0.013960443 0.014789499 0.074766584
-0.050952114 0.020289361 -0.060462415 -0.0980458 -0.09455112 0.023659445 0.08076621 -0.06386763
-0.045667063 -0.08715345 -0.045510102 0.048460595 0.07897983 -0.07254275 -0.0057862625 0.080724545
0.056180082 -0.09712944 -0.003662482 0.008289531 0.07787088 0.08654929 -0.012151696 0.02046398
-0.019977883 -0.057267915 0.05539251 0.07301346 0.0065167546 -0.095046915 0.0045204014 -0.044106912
-0.00038349628 -0.036292233 -0.0037719384 0.095685326 0.08513505 0.017222129 0.04899793 -0.031601645
0.052112035 0.08298663 0.048354335 -0.07230581 -0.05125649 -0.04623566 0.07582951 -0.0765142
-0.08946633 0.012166023 -0.012972966 0.07926232 -0.06121836 0.059822805 0.09696952 0.0024033412
0.03743852 0.040256 0.07093146 -0.098310195 0.01587379 0.020845808 0.058329336 0.08731333
-0.023266174 -0.042098965 0.09313852 0.056017824 -0.028296828 0.03536945 0.07043315 -0.07114041
0.08569526 -0.097573124 -0.08186345 0.00933592 -0.079989925 0.018968724 -0.09451312 -0.017683603
0.077443756 -0.07211316 0.06187678 -0.06103144 0.04395821 0.007588804 -0.03266126 -0.09202416
-0.056914806 -0.079684675 -0.06436677 0.043168016 -0.09375044 -0.034941778 0.052276216 0.03480325
-0.056067575 -0.081478536 -0.07465424 -0.0663075 -0.016139612 -0.024313368 -0.08961312 0.078769796
0.0905659 0.056964464 0.030438356 0.08462716 -0.045031536 0.028867818 0.06688959 -0.03149511
0.011884391 -0.084804825 0.06306388 -0.022584714 -0.0467757 -0.016030036 0.015150771 -0.0009061545
-0.03957819 -0.09161973 0.0453751 0.031135105 -0.085563324 0.060790963 -0.006534554 -0.0420254
-0.036930405 -0.03705374 0.07411928 0.068708025 -0.045564067 -0.08900068 -0.004130736 -0.01160457
0.047749273 0.079462506 0.003154084 -0.031051658 0.05762004 -0.03657192 -0.0893324 -0.02981247
0.09244079 -0.026518181 0.08221329 0.023239017 -0.062005866 0.038429387 0.027561612 -0.0030620247
0.0147431865 0.06466115 -0.09115225 0.09992703 -0.02873192 -0.017513752 -0.053693663 0.04271292
0.020499125 0.094324894 -0.03780321 -0.0869823 0.0226807 -0.060213543 0.00865148 0.065888114
0.013424136 -0.02522491 -0.081812955 0.02944579 -0.03714876 -0.030458763 0.04638643 0.06797216
0.06094878 -0.029049434 -0.080879316 -0.0066676587 0.05661673 0.01523415 0.08025799 0.058614694
0.035982706 0.06317008 0.05302661 -0.042898368 -0.04571117 0.05357919 0.0809116 0.027157538
-0.0019601732 -0.068177536 -0.062186837 -0.028443456 0.058243103 0.021322057 0.06571158 0.09159554
-0.010117546 0.0424707 -0.047015823 -0.051119316 0.07823887 0.0090511665 0.0564517 0.0789837

gru.bias_hh_l0 f4 [300]
00000000: a0b5 b8bd 764f 773d 1418 8cbd 26f2 02bd
00000010: f4dd d0bc 1da6 8ebd a6e2 023d 30c1 d3bb
00000020: 88ae cabd f668 233d 00a9 71ba c0f1 4b3c
00000030: 8836 a53c ce24 643d 2007 f23b e858 dbbc
00000040: 6d1e 65bd 6d0f 44bd 6ebd 113d 60c4 cdbc
00000050: 5e6e 743d 204d 9abb 30aa 38bc 356d b1bd
00000060: 0a31 5c3d 932a 58bd 62ce 013d 00fb 453c
00000070: 4730 4abd 01cf 893d 9458 a43c 3139 893d
00000080: 803d 823b 2063 02bd e050 86bd 673b 71bd
00000090: 265e 033d aa42 aabd 6042 9cbc 6624 1d3d
000000a0: 67f8 4cbd 618e 9d3d b472 97bc 58cd 16bc
000000b0: eed3 87bd 400c 18bd 12a9 2e3d 8600 453d
000000c0: 7c66 e03c 5ea1 9fbd dae8 16bd 8b10 c63d
000000d0: da86 b7bd 2a0e 5abd e8ca 073c 90c3 68bd
000000e0: ad8d 23bd a279 653d d802 47bc 3444 8d3c
000000f0: 2881 973c 428d 0d3d b998 c43d c629 04bd
00000100: 2a0b 2ebd df17 9c3d 5f95 8a3d 2c2f 83bc
00000110: 58ae cebc 649d fb3c 705d 89bd 60d0 7bbd
00000120: ba5f 3d3d 1efb 81bd 2791 a23d ddb1 bd3d
00000130: 2bea a4bd ee60 94bd 0cc4 d3bc 9b0f a53d
00000140: f962 b43d 6277 533d 8e41 363d a9a2 c73d
00000150: 091f 8e3d fe0c 793d 3bd2 9dbd 5a5e 413d
00000160: c852 8dbc 83e9 97bd 7dea 5ebd 30be 1abc
00000170: 9371 933d 8b7d c0bd b9f5 b13d c8c6 b03c
00000180: 005f 39bb b5ab 90bd 00bb 44ba cb41 ba3d
00000190: 0093 a0b9 0295 bbbd 47ee 51bd 6049 b4bc
000001a0: 8058 fe3a b620 753d 8283 363d 9858 8a3c
000001b0: a030 c7bd e0b0 b9bb 822d 323d 4039 bfbc
000001c0: a359 27bd 94f1 c0bc 6e30 2b3d d7c7 c0bd
000001d0: a041 edbb c2dd 443d 20c4 84bc cd2b a9bd
000001e0: b8d8 f6bc c863 903c b208 563d b016 fa3b
000001f0: 9aec 88bd c2c5 293d ea7d 50bd 9c62 89bd
00000200: ed0d abbd 2054 81bd d7b1 af3d c0e0 03bb
00000210: 80c9 cabd 3dab a7bd 1929 913d 5a81 503d
00000220: aad1 22bd 6095 a33c 506f 973b 5bda bbbd
00000230: f5fb 8c3d 625a 683d 3bac c03d e564 a3bd
00000240: 6042 eabc 0058 a5b9 80ee d7bc e0f1 adbb
00000250: e822 283c 5231 343d 68d5 0a3c 96d9 033d
00000260: 6bbe b33d b7b1 6cbd 11e5 c43d d0a0 4bbd
00000270: 40d0 50bb 91d5 b43d 009c 96bc 00da ff39
00000280: 6331 65bd 26c2 90bd 0b5f c3bd 2316 943d
00000290: ec8c dfbc 0c0b b8bc fadc 93bd 723b 2a3d
000002a0: 468c 83bd 0ff9 883d 598a 913d 2280 653d
000002b0: 0a62 a0bd 6966 ba3d 73d6 4abd a8b5 71bc
000002c0: f5f9 b23d 23f5 afbd c63f 02bd 803f a23a
000002d0: e885 2b3c b31e b9bd 312e 883d 5762 bf3d
000002e0: 4b14 91bd 785f fabc 9727 c7bd d2a6 2f3d
000002f0: 5a5e 0d3d 0364 b9bd 8043 7f3c b33e 9a3d
00000300: c79b 36bd 34b9 97bc 0825 95bc 66ce 243d
00000310: 33da 853d 75a4 a83d 53c0 a03d a01d 75bb
00000320: 3304 c33d e416 fe3c 7df7 c63d 0ac9 7b3d
00000330: 00f5 7c3b 807c 173c f874 99bd c2f4 9cbd
00000340: 6850 1dbc f204 473d 504b b53b 3a38 90bd
00000350: 00a7 b7bb 902f 433c 98dc 5ebc 4a36 00bd
00000360: 9f1b 933d 68d8 bc3c ba0d 0abd eca1 a1bc
00000370: aa96 58bd b2b3 153d 0a29 2e3d e003 86bb
00000380: 44b6 d33c 767e 663d 6cc4 d9bc ca2d 793d
00000390: 40ae 083c 8093 9b3c e0d9 8a3b 0bf8 b83d
000003a0: 000f c23b 93d5 a43d 6070 25bb 607e ecbc
000003b0: 12a4 143d 1e5b 80bd 359a babd 7d08 38bd
000003c0: 80bb 67bc 696b 953d 7412 a7bc 258c bc3d
000003d0: 58ca 39bc c0ee 52bc 4ce0 aebc 0059 223a
000003e0: dea9 363d f26c 7f3d c009 0abd 57f6 1bbd
000003f0: 677f 34bd ba82 2cbd 8e05 a1bd a48d f53c
-0.09019017 0.060378514 -0.0684053 -0.031969212 -0.02549646 -0.06965277 0.03195443 -0.0064622387
-0.098965704 0.03989502 -0.00092186034 0.012447774 0.020167604 0.055699162 0.0073861033 -0.026775792
-0.05593722 -0.047866274 0.035581045 -0.025118053 0.059675567 -0.004708901 -0.011271045 -0.08663408
0.053757705 -0.052774977 0.031690963 0.012083769 -0.049362447 0.06728936 0.020061769 0.067003615
0.0039746165 -0.031832814 -0.065583944 -0.05889454 0.03207221 -0.083134964 -0.019074619 0.03836479
-0.050041582 0.07693172 -0.018487312 -0.009204231 -0.06632219 -0.037121058 0.042641707 0.048096202
0.027392618 -0.0779445 -0.03684316 0.09671124 -0.08961268 -0.053236164 0.008288123 -0.056827128
-0.039930034 0.0560242 -0.012146674 0.017244436 0.018494204 0.034558542 0.09599442 -0.0322664
-0.042491116 0.076217405 0.067667715 -0.016013704 -0.025229618 0.030714698 -0.06707275 -0.06147802
0.04623387 -0.06346725 0.07937842 0.0926244 -0.080524765 -0.0724505 -0.025850318 0.08059617
0.0880794 0.051627524 0.04449611 0.09747822 0.06939513 0.060803406 -0.07706114 0.04720912
-0.017251387 -0.07417586 -0.054422844 -0.009444758 0.07199397 -0.093989454 0.08689446 0.021579161
-0.0028285384 -0.070640005 -0.0007504672 0.0909458 -0.00030627102 -0.0915928 -0.05125263 -0.022007644
0.0019405037 0.05984565 0.04455901 0.016887948 -0.09726071 -0.005666837 0.04350043 -0.023342729
-0.04085697 -0.023552693 0.041794233 -0.094131164 -0.007240489 0.048063047 -0.016206801 -0.082603075
-0.030132636 0.017625704 0.052254386 0.007632099 -0.06685753 0.041448362 -0.05090133 -0.06708261
-0.083522655 -0.06314874 0.08578842 -0.0020122975 -0.09901714 -0.08186958 0.07087917 0.05090461
-0.039750732 0.019968688 0.004621424 -0.091725074 0.068839945 0.05672682 0.0940785 -0.079782285
-0.028596103 -0.00031536818 -0.026358843 -0.0053083748 0.010262229 0.043992348 0.008473732 0.032189928
0.08776554 -0.05778667 0.096140034 -0.04971391 -0.0031862408 0.08829797 -0.018384933 0.00048799813
-0.055955302 -0.07068281 -0.095396124 0.07230785 -0.027288876 -0.022466205 -0.07219882 0.041560598
-0.064232394 0.06688129 0.07106466 0.0560304 -0.078311995 0.091015644 -0.04952092 -0.014752783
0.08739082 -0.08591678 -0.0317991 0.0012378544 0.010468937 -0.090390585 0.06649435 0.09344929
-0.07083949 -0.030563101 -0.09724348 0.0428837 0.03451381 -0.09052279 0.015580058 0.0753149
-0.044582155 -0.018520929 -0.018206134 0.0402359 0.06535759 0.08234493 0.07849183 -0.003740169
0.09522285 0.031016774 0.097151734 0.061471023 0.003859818 0.009245992 -0.07493013 -0.07663871
-0.00960169 0.0485887 0.0055326596 -0.07041974 -0.0056046247 0.011913195 -0.013602398 -0.031301774
0.07183003 0.02305241 -0.033704497 -0.01973053 -0.05287806 0.036548324 0.042519607 -0.0040898174
0.025843747 0.056272946 -0.026582919 0.060834683 0.008342326 0.018991232 0.0042373985 0.090316854
0.0059221983 0.080485485 -0.0025243983 -0.028868854 0.036289282 -0.06267379 -0.09111444 -0.04492997
-0.014143825 0.072958775 -0.020394541 0.09206418 -0.011339746 -0.012874305 -0.021347187 0.00061930716
0.04459559 0.062359758 -0.033700705 -0.038076725 -0.044066813 -0.042116858 -0.078623876 0.029974766

fc.weight f4 [1, 100]
00000000: 0ab4 a7bd c5ee b3bd 0e45 1b3d ba7d 46bd
00000010: b26c 8fbd 80ea f8bb 8cc1 853c b8c4 ddbc
00000020: ce4b 3c3d 3db9 a23d 7ad6 133d a79d b2bd
00000030: 8050 73bc b0a0 40bd b3d7 873d d05e 2dbc
00000040: f2c7 083d b123 8d3d 80da 94ba aac3 1c3d
00000050: 0a5e 74bd 2af6 5dbd 7f8f 8a3d 399b a33d
00000060: 7b4d b03d abb7 c43d 3da8 1bbd 4a81 2abd
00000070: 312f c93d 0f10 b83d d6dd 693d 47ce 3dbd
00000080: fc6b 03bd 3830 b63c 9858 cc3c 5c04 df3c
00000090: eb11 973d 1025 36bd c245 a6bd ec43 d7bc
000000a0: 94f2 ec3c a9d3 903d 1e0f 123d 4ffd 893d
000000b0: c06c 89ba 53ff 2dbd 58e2 7f3c 58cc 423c
000000c0: 7282 8cbd f0db 4bbc 00a0 b9b8 080a 81bc
000000d0: b080 c3bd 5822 c4bd 0305 b0bd 20cd bfbc
000000e0: 4854 cc3c fab6 73bd 9c50 02bd e985 b93d
000000f0: 7004 4fbd f23c 84bd 9410 96bc 6538 9a3d
00000100: 6686 09bd a303 c73d 4565 963d a047 b43b
00000110: faab 20bd ce33 1f3d f4b5 f23c 37e4 a73d
00000120: 278c 66bd 7a41 35bd 8058 f73b 5b97 cabd
00000130: d0d6 6bbc 8029 92ba a2a4 3a3d ca23 563d
00000140: 50ee 16bc 14f3 a7bc 5a62 12bd 2b4c a6bd
00000150: e0d3 3dbd 8c3e e83c 9e8e 8ebd 27d8 aebd
00000160: e7a5 c5bd 1225 643d 75ed 993d 000e 7dbb
00000170: 2610 7a3d 0256 763d 80c2 7fba 594c 9c3d
00000180: 8812 a43c e382 70bd bfc8 9d3d 5822 bf3c
-0.081886366 -0.08785776 0.037907653 -0.048459746 -0.07003154 -0.007596314 0.016327642 -0.027071342
0.04597073 0.07945488 0.036093213 -0.08721476 -0.014850736 -0.047028244 0.06632938 -0.010581687
0.033393808 0.06891573 -0.0011356622 0.038272537 -0.059659995 -0.05418984 0.06765651 0.07988591
0.08608528 0.096053444 -0.03800224 -0.041627206 0.09823454 0.08987438 0.057096325 -0.0463393
-0.032085404 0.02223979 0.024944589 0.027223758 0.073764645 -0.04446894 -0.08118774 -0.026277505
0.028924264 0.07071621 0.035658948 0.06737768 -0.001048468 -0.042479824 0.015617929 0.01188954
-0.06860818 -0.012442574 -8.85129e-05 -0.015751854 -0.095460296 -0.09576863 -0.08594706 -0.02341324
0.024942532 -0.059500672 -0.031815156 0.090587445 -0.05054134 -0.06456937 -0.018318452 0.07530288
-0.033575438 0.097174905 0.073435344 0.0055017024 -0.03922651 0.038867764 0.029627778 0.081978254
-0.056286003 -0.044251896 0.007548392 -0.0989215 -0.014394477 -0.0011151284 0.045567162 0.052280225
-0.009212092 -0.02050165 -0.035738327 -0.08119997 -0.046344638 0.028350137 -0.06960796 -0.085373215
-0.09650784 0.055699416 0.075159945 -0.003861308 0.061050557 0.060140617 -0.0009756461 0.0763175
0.020028368 -0.058718573 0.07704305 0.023331806
