savemodel/model.pth (torch, 175476 bytes, 5 tensors)

lstm.weight_ih_l0 f4 [400, 6]
0	0xbdb52922	-0.08845736
1	0xbca5ea80	-0.02025342
2	0x3d90c019	0.0706789
3	0xbd27a183	-0.040925514
4	0x3dab0d59	0.08352155
5	0xbccc71d4	-0.024956621
6	0x3dbfa96d	0.09358487
7	0x3c712a00	0.014719486
8	0xbdc98c80	-0.098412514
9	0xbd94673d	-0.07246254
10	0x3d357752	0.044303246
11	0xbcb5b754	-0.022182144
12	0x3d535132	0.051591106
13	0xbd9be5c6	-0.07612185
14	0xbcde1f34	-0.027114488
15	0x3dac4fff	0.084136955
16	0x3d886709	0.066602774
17	0xbcb98f80	-0.022651434
18	0x3c099218	0.008396648
19	0x3da9a9c7	0.082843356
20	0x3c5ed498	0.013600491
21	0x3d82f1c1	0.06393767
22	0x3dca8e73	0.09890451
23	0xbd88f375	-0.06687061
24	0x3c5573d8	0.013028108
25	0x3d544482	0.051823147
26	0x3da548d1	0.08070529
27	0xbbf0e3a0	-0.0073513538
28	0xbd8d48e0	-0.068986654
29	0x3d57eb6e	0.052714758
30	0x3dc9b5cd	0.09849129
31	0xbda9be13	-0.08288207
32	0x3ba7bca0	0.0051189214
33	0x3dca6501	0.09882546
34	0xbc396450	-0.01131542
35	0x3d85c141	0.06531001
36	0x3dab72df	0.08371519
37	0x3dcc68c7	0.09980922
38	0xbb715140	-0.003682211
39	0x3beaeee0	0.0071695894
40	0x3d1fb772	0.038993306
41	0x3db1ecd3	0.08687749
42	0xbd970fc8	-0.07376057
43	0xbd02be24	-0.031919613
44	0x3d4e2c62	0.050335295
45	0x3d2c121a	0.04200945
46	0x3d608b6e	0.05482047
47	0x3d8b8769	0.06812937
48	0x3d4bcf4a	0.049758233
49	0xbaa04940	-0.0012228861
50	0xbce77fc8	-0.028259173
51	0x3d02a036	0.03189107
52	0x3d03465a	0.032049514
53	0x3da4c931	0.08046187
54	0xbc8256c8	-0.015910521
55	0xbdc9a49a	-0.098458484
56	0xbdc790b0	-0.09744394
57	0x3c1d2210	0.009590641
58	0xbdc78590	-0.09742272
59	0xbc78bab0	-0.0151812285
60	0xbbb73900	-0.0055915117
61	0xbd092600	-0.033483505
62	0xbd2aecd0	-0.04172975
63	0x3d5feee2	0.054671176
64	0x3d852c7f	0.065026276
65	0xbdc576ad	-0.09641776
66	0xbdb7d2cf	-0.089757554
67	0x3bdb2480	0.0066877007
68	0xbcf0846c	-0.029360019
69	0x3db276a9	0.08714039
70	0x3dc501f9	0.09619517
71	0x3d955213	0.07291045
72	0x3d2996b2	0.04140348
73	0xbbfffca0	-0.0078120977
74	0xbdc0a61b	-0.09406682
75	0x3dbc9b5b	0.09209319
76	0xba65a580	-0.0008760318
77	0xbd473c93	-0.048641752
78	0xbc621a10	-0.013800159
79	0xbd03bbf4	-0.032161668
80	0xbcfa9c28	-0.03059204
81	0xbce3c438	-0.027803525
82	0x3dbbfb5b	0.091788016
83	0x3d646592	0.055760927
84	0xbdca0cfa	-0.09865756
85	0xbcb0bb60	-0.021573722
86	0xbc5dcc68	-0.013537504
87	0x3d7c0226	0.061525486
88	0x3adbd4c0	0.0016771778
89	0x3d6c384e	0.057670884
90	0x3cb0ee00	0.021597862
91	0x3c19d7d8	0.00938984
92	0xbd3076c7	-0.043082025
93	0x3cd63b84	0.026151426
94	0x3cc4d60c	0.024027847
95	0xbcf7b140	-0.030235887
96	0xbcfdb320	-0.030969203
97	0xbca28db8	-0.019842967
98	0xbabcc380	-0.0014401525
99	0xbda01512	-0.07816519
100	0xbd9b379b	-0.07578965
101	0x3c1fc610	0.009751812
102	0xbc82806c	-0.015930377
103	0xbd1d136d	-0.038348604
104	0x3d675772	0.05647988
105	0x3da13669	0.07871706
106	0x3cda120c	0.026619934
107	0x3db1a6a9	0.08674366
108	0x3d840201	0.06445695
109	0xbd1063cc	-0.035251424
110	0xbdcc605d	-0.09979317
111	0xbdbcf0e5	-0.092256345
112	0xbc82a7d4	-0.015949167
113	0xbb5786a0	-0.003288664
114	0xbd324cea	-0.043530382
115	0x3ccad7b8	0.024761066
116	0x3daf7a55	0.08568255
117	0x3c333030	0.010936782
118	0x3dae7445	0.085182704
119	0xbdc22a6a	-0.09480746
120	0x3c54e268	0.012993433
121	0xbc03d1e8	-0.008045651
122	0xbd1bbba7	-0.038020756
123	0xbd2bb157	-0.04191717
124	0xbd8cc1b6	-0.06872885
125	0x3d938611	0.072033055
126	0xbd7e500d	-0.06208806
127	0xbd2b0d40	-0.041760683
128	0xbc9fe928	-0.019520357
129	0x3db182f9	0.08667559
130	0x3db04d1b	0.08608457
131	0xbb948eb0	-0.0045336112
132	0xbd0c44f0	-0.03424543
133	0xbdbe4b4f	-0.09291708
134	0x3d8f254d	0.069895364
135	0x3ca8c6e0	0.020602643
136	0x3dbd162b	0.09232744
137	0xbdc59070	-0.0964669
138	0x3d1fde56	0.039030395
139	0x3dca5119	0.098787494
140	0x3dcc8eb1	0.09988154
141	0xbda788e2	-0.08180405
142	0xba91cc00	-0.0011123419
143	0xbdb51928	-0.08842689
144	0x3da2349b	0.0792019
145	0xbd0004c6	-0.031254552
146	0xbdab02f8	-0.083501756
147	0xbd9634a3	-0.073342584
148	0x3d8e5467	0.06949692
149	0x3dacfed9	0.08447046
150	0x3d93e199	0.07220764
151	0xbd87d992	-0.06633295
152	0x3db5d1d1	0.0887791
153	0x3c2c4158	0.010513626
154	0xbd911e60	-0.07085872
155	0x3ac0d680	0.0014712363
156	0x3dada887	0.0847941
157	0xbc776590	-0.015099898
158	0xbd9026ea	-0.07038672
159	0xbd0ceb36	-0.034404002
160	0xbd8cd423	-0.06876399
161	0xbce3ba08	-0.027798668
162	0x3d66509a	0.05622921
163	0x3c8e2ee0	0.017356336
164	0xbd58d00a	-0.052932777
165	0xbd3fb443	-0.04680277
166	0x3d10e3b6	0.035373412
167	0x3d8a4cd9	0.06752939
168	0xbd8d2de8	-0.068935215
169	0xbd9badc6	-0.07601504
170	0x3d6ae072	0.057342954
171	0xbd103fe6	-0.03521719
172	0x3cf7b364	0.030236907
173	0x3d0b6122	0.03402818
174	0xbdca1c80	-0.09868717
175	0xbd808f02	-0.062772766
176	0x3cd292d4	0.025704779
177	0xbced5c54	-0.02897469
178	0x3dbd7409	0.092506476
179	0xbdb1c005	-0.08679203
180	0xbd8a303d	-0.06747482
181	0x3cef76b4	0.029231407
182	0xbb58b660	-0.0033067688
183	0x3d57ffaa	0.052734055
184	0x3c97c20c	0.018525146
185	0xbcdbf16c	-0.026848517
186	0xbcd265f4	-0.02568338
187	0x3d3630fe	0.044480316
188	0xbbc5b130	-0.0060330853
189	0xbc5921a8	-0.013252653
190	0x3da27fdb	0.07934543
191	0xbdb1d6cf	-0.086835496
192	0x3ccf6424	0.025316305
193	0x3b4e52a0	0.0031482354
194	0xbc9a1acc	-0.018811606
195	0xbc1b9b50	-0.009497479
196	0xbdb87477	-0.09006589
197	0x3d3c6dbe	0.046003096
198	0x3d50be82	0.050962932
199	0xbda2bf4e	-0.07946645
200	0x3cab1aac	0.020886742
201	0xbdadcd9f	-0.08486485
202	0x3d4aba76	0.04949423
203	0x3b5aa240	0.0033360869
204	0xbd196284	-0.037447467
205	0x3d5a2bf2	0.053264566
206	0xbd7233f7	-0.05913159
207	0xbd990ecd	-0.07473526
208	0x3d134306	0.03595259
209	0x3d2fe7ae	0.042945556
210	0x3abbbb80	0.0014322847
211	0xbd2de907	-0.04245856
212	0xbd04e1fc	-0.032442078
213	0x3cf3e084	0.029770143
214	0x3d72dab6	0.05929061
215	0xbdc4ff8f	-0.096190564
216	0xbd3643f3	-0.044498395
217	0x3dc33d73	0.09533205
218	0x3dacb099	0.08432121
219	0x3c86cf98	0.01645641
220	0x3bbac4b0	0.0056997165
221	0x3c26baa8	0.010176338
222	0x3db47d89	0.088130064
223	0xbc51d618	-0.012807392
224	0xbd9bb45d	-0.07602761
225	0xbc0ba0a8	-0.00852219
226	0x3cd260ac	0.025680862
227	0x3cbb660c	0.022875808
228	0x3db60233	0.08887138
229	0x3cf55274	0.029946543
230	0x3d27837e	0.040896885
231	0x3d92564f	0.07145368
232	0x3d5dc31e	0.054141156
233	0x3d8bc001	0.06823731
234	0x3d959035	0.07302896
235	0x3d2a6926	0.041604184
236	0xbdcc914a	-0.09988649
237	0x3b059000	0.002038002
238	0xbdb69047	-0.089142375
239	0x3d814db5	0.063136496
240	0xbd29657d	-0.041356552
241	0x3dca4199	0.09875793
242	0xbdb277dd	-0.08714268
243	0xbdbd6ae7	-0.09248906
244	0xbd953b1d	-0.072866656
245	0xbc31e098	-0.01085677
246	0xbc79bd50	-0.0152428895
247	0x3d5dc6b2	0.05414457
248	0xbdbc3b02	-0.09190942
249	0xbcb133ec	-0.021631204
250	0xbd462680	-0.04837656
251	0x3d55121e	0.05201923
252	0x3d82735f	0.063696615
253	0xbc06b410	-0.008221641
254	0x3dbf4625	0.09339551
255	0xbd1afa53	-0.037836384

lstm.weight_hh_l0 f4 [400, 100]
0	0xbd886c7c	-0.06661317
1	0x3cf59004	0.029975899
2	0x3db9fe51	0.0908171
3	0xbd8cae7c	-0.06869218
4	0x3d675616	0.056478582
5	0xbd7aee33	-0.06126232
6	0x3c1833d8	0.009289704
7	0xbb8670d0	-0.0041028038
8	0xbd936a18	-0.0719797
9	0xbd83ed4a	-0.06441744
10	0x3dac2bd5	0.08406798
11	0xbd3e420d	-0.04644971
12	0x3dbad349	0.09122331
13	0x3d947f73	0.072508715
14	0x3ac9a780	0.0015385002
15	0xbda05405	-0.078285255
16	0xbbc4e8d0	-0.0060091987
17	0xbdb72798	-0.08943099
18	0xbd516be0	-0.05112827
19	0xbdbcb7df	-0.09214758
20	0x3d78d366	0.06074848
21	0xbd77ea9a	-0.060526468
22	0x3d91bc91	0.07116044
23	0x3a3f8280	0.0007305518
24	0x3d90c813	0.07069411
25	0x3d84e349	0.06488664
26	0xbb93b4b0	-0.0045076236
27	0x3cb8f6a0	0.022578537
28	0xbdc48167	-0.09594994
29	0x3d85ecc5	0.06539301
30	0xbb2e3b60	-0.0026585683
31	0x3dc0f2ab	0.09421285
32	0x3cb881b8	0.022522792
33	0x3d9cfc1f	0.07665276
34	0xbdc72d58	-0.097254455
35	0xbccb8bcc	-0.024846934
36	0xbd70a940	-0.05875516
37	0xbda40ffe	-0.08010863
38	0x3ca82440	0.020525098
39	0xbd3bdcdd	-0.04586493
40	0xbc4bb240	-0.012432635
41	0x3b2b6960	0.0026155338
42	0x3c415770	0.011800632
43	0x3d4d1286	0.050066493
44	0x3dad18b7	0.084519796
45	0xbd4d83d7	-0.05017456
46	0xbd11dac0	-0.035609007
47	0x3dc1d341	0.094641216
48	0x3d4beeba	0.049788214
49	0x3dadaec1	0.08480597
50	0xbd2f41ad	-0.042787243
51	0x3dbc4569	0.091929264
52	0xbca4352c	-0.020044886
53	0xbd68b223	-0.05681051
54	0x3b867400	0.0041031837
55	0x3d948825	0.0725253
56	0x3dc15a39	0.09441037
57	0xbdae74ca	-0.085183695
58	0xbc904cac	-0.017614685
59	0xbd3569dd	-0.044290412
60	0xbcb44138	-0.022003755
61	0x3b2269a0	0.0024782196
62	0xbd50f46a	-0.05101434
63	0x3c4eb058	0.012615286
64	0xbd1a5a70	-0.037683904
65	0x3c0dfb30	0.008665845
66	0xbd006cfa	-0.03135393
67	0xbb949250	-0.0045340434
68	0xbdcc94a5	-0.09989289
69	0xbdbffb65	-0.093741216
70	0x3c906620	0.017626822
71	0xbcdac894	-0.026706971
72	0x3d34e52e	0.044163875
73	0x3d22ff96	0.039794527
74	0x3d8d9f43	0.069151424
75	0xbd0b1190	-0.033952296
76	0x3dca4f07	0.098783545
77	0xbccb57f4	-0.024822213
78	0x3c08c580	0.008347869
79	0x3db61695	0.08891026
80	0xbc5080f0	-0.012726054
81	0xbcdb1454	-0.026743092
82	0x3cbe76f8	0.023250088
83	0xbb213dc0	-0.0024603456
84	0x3d449ad2	0.04799921
85	0xbc3a57d8	-0.011373483
86	0x3cf311dc	0.029671602
87	0xbce71e2c	-0.02821263
88	0x3c14e1f0	0.009087071
89	0xbd4aaa43	-0.04947878
90	0x3d9d1351	0.076697
91	0xbd84a24d	-0.06476269
92	0xbd741837	-0.059593406
93	0x3cac4f54	0.02103392
94	0xbda7a4a3	-0.08185699
95	0x3d1f6dfa	0.03892324
96	0xbcef80c8	-0.029236212
97	0x3d91d8c1	0.07121421
98	0xbd34c91d	-0.04413711
99	0xbd8399bd	-0.064258076
100	0xbd06f254	-0.032945946
101	0xba895f80	-0.0010480732
102	0xbd9e82fb	-0.07739826
103	0x3dc9c423	0.09851863
104	0x3b5b7060	0.0033483729
105	0xbd0d8286	-0.034548305
106	0xbdb2a2f2	-0.087224856
107	0x3cef7cfc	0.029234402
108	0x3d03008e	0.03198295
109	0xbda01245	-0.07815985
110	0x3d956143	0.07293942
111	0x3c7eaf00	0.015544653
112	0x3d852137	0.06500476
113	0x3cdedeac	0.027205788
114	0x3db7d757	0.0897662
115	0x3ca67c94	0.020323075
116	0xbd56cb00	-0.05243969
117	0x3d00e35e	0.031466834
118	0xbda292fa	-0.0793819
119	0x3d1d3426	0.03837981
120	0x3ce98de4	0.028510042
121	0x3cb9a7e0	0.022663057
122	0xbbd8c300	-0.0066150427
123	0x3d98b533	0.07456436
124	0x3d1e68e6	0.038674258
125	0x3dafd3f9	0.085853525
126	0xbc12b810	-0.008955017
127	0x3d64b3ca	0.055835523
128	0xbc849a00	-0.016186714
129	0x3d1b45ba	0.037908293
130	0xbd8e97ae	-0.06962524
131	0x3c937314	0.01799921
132	0xbd3cce47	-0.04609516
133	0x3cf91af4	0.03040836
134	0x3d92d86f	0.07170188
135	0x3d80bbd1	0.06285823
136	0x3daddd77	0.08489507
137	0xbceaa66c	-0.02864381
138	0x3cbf90b4	0.02338443
139	0x3d858ed9	0.06521387
140	0x3c50a728	0.012735166
141	0x3d19ae5a	0.03751979
142	0xbda23f1d	-0.07922194
143	0xbd9f0de2	-0.0776632
144	0x3d8fb88f	0.07017624
145	0xbc77ab80	-0.015116572
146	0x3c95fd20	0.018309176
147	0x3d192db2	0.037397094
148	0xbd7e9277	-0.0621514
149	0x3a5fd680	0.0008538738
150	0x3dbc8a27	0.09206038
151	0x3be067d0	0.006848313
152	0xbbe41a30	-0.0069611296
153	0xbd1c852d	-0.038212944
154	0x3cc62968	0.024189666
155	0x3cfad4ec	0.030619107
156	0xbcbcce54	-0.023047604
157	0x3da9f843	0.08299305
158	0x3ca5994c	0.0202147
159	0x3d8b07eb	0.067886196
160	0x3d4e4e86	0.050367855
161	0x3cbd62ac	0.02311834
162	0xbdad17b0	-0.08451784
163	0xbcad9738	-0.02119027
164	0x3dcae423	0.09906795
165	0x3d7bff0a	0.06152252
166	0x3dbffd21	0.093744524
167	0x3db3a51b	0.08771726
168	0x3ca739c0	0.02041328
169	0x3c453658	0.012036882
170	0x3d720342	0.05908514
171	0xbcaa78e0	-0.02080959
172	0x3d9d5e53	0.076840065
173	0x3dc4ab0d	0.09602938
174	0x3d9a1713	0.07523932
175	0x390c4a00	0.00013379008
176	0xbb687ca0	-0.0035474673
177	0x3d3fa8d2	0.04679186
178	0xbd102ac0	-0.03519702
179	0xbd55a210	-0.052156508
180	0x3c0a1500	0.008427858
181	0xbd34559d	-0.04402696
182	0x3d0cea92	0.03440339
183	0xbbdedf80	-0.0068015456
184	0xbd13e980	-0.036111355
185	0x3d923e45	0.07140783
186	0xbdcb1b7f	-0.09917354
187	0x3dc5ea63	0.09663846
188	0xbd63b8dd	-0.05559622
189	0xbc5a4728	-0.013322629
190	0x3c371770	0.0111750215
191	0xba80f080	-0.00098373
192	0x3b3db760	0.0028948411
193	0xbd3f9c9a	-0.046780206
194	0xbdb69ae8	-0.08916265
195	0xbdbd2858	-0.092362106
196	0x3c937dd4	0.018004335
197	0x3d9110e1	0.070832975
198	0xbd3b0e1d	-0.045667756
199	0xbc3e0198	-0.01159706
200	0x3d565fb6	0.05233737
201	0x3d4c1e56	0.049833618
202	0x3d403a4a	0.04693059
203	0xbd7ae25d	-0.061251033
204	0x3cc9dacc	0.024640463
205	0xbc1742e8	-0.00923226
206	0x3d5a67fa	0.053321816
207	0x3da9416b	0.082644306
208	0xbc395730	-0.011312291
209	0x3c179c40	0.0092535615
210	0xbd988c46	-0.0744863
211	0x3dc3e4bd	0.09565113
212	0xbd5baded	-0.053632665
213	0xbd0b875a	-0.03406463
214	0xbdb2878f	-0.08717262
215	0xbd964f8d	-0.07339392
216	0xbd05c780	-0.03266096
217	0x3d860609	0.0654412
218	0x3dbc3f8f	0.0919181
219	0x3db004c1	0.08594657
220	0x3cd7b084	0.026329286
221	0xbce628e8	-0.028095677
222	0xbd3616ca	-0.044455327
223	0x3d2426ce	0.04007607
224	0xbdb37df2	-0.087642565
225	0xbd97c168	-0.07409936
226	0x3d8ca483	0.068673156
227	0x3cb515d8	0.022105142
228	0x3c6edee8	0.014579512
229	0x3dc9f69b	0.098614894
230	0x3cb3f848	0.021968976
231	0xbc849738	-0.016185388
232	0x3dc43a0b	0.09581383
233	0xbdbc7a32	-0.092029944
234	0x3d31c61a	0.043401815
235	0xbdb3e362	-0.08783604
236	0x3dbe0491	0.09278215
237	0xbdbdf7a0	-0.09275746
238	0x3cc72978	0.024311766
239	0xbd82d8f2	-0.06389035
240	0x3bf94550	0.0076071396
241	0x3dc9f0ad	0.098603584
242	0xbb9d85e0	-0.004807219
243	0xbd94f8c6	-0.07274012
244	0x3d13339a	0.035937883
245	0x3d8d13f9	0.06888575
246	0xbc422958	-0.011850677
247	0x3d2cdf52	0.042205162
248	0x3dbec7c3	0.09315445
249	0xbd97771e	-0.07395767
250	0x3cfc24cc	0.030779265
251	0xbbd96100	-0.0066338778
252	0x3cd0e9fc	0.025502197
253	0x3ccf8284	0.02533079
254	0xbd840f60	-0.06448245
255	0xbdc6414a	-0.09680422

lstm.bias_ih_l0 f4 [400]
0	0xbd3d92b0	-0.04628247
1	0x3d42fd02	0.04760457
2	0x3c9ebd0c	0.019377254
3	0x3a9b2980	0.001183793
4	0x3db17d71	0.08666504
5	0xbcaac280	-0.020844698
6	0xbda70ded	-0.08156953
7	0x3db8068b	0.08985623
8	0x3c295670	0.01033555
9	0xbc2e9f68	-0.010658123
10	0xbce6e12c	-0.028183542
11	0xbdab70f3	-0.08371153
12	0x3d8b9225	0.06814984
13	0xbd932cb8	-0.07186264
14	0x3c678f40	0.014133275
15	0xbd19bf03	-0.03753568
16	0x3a237000	0.0006234646
17	0xbdc85e2b	-0.09783586
18	0xbda12e8a	-0.07870205
19	0xbdc340f3	-0.095338725
20	0xbd6fb847	-0.05852535
21	0x3d9f77f1	0.07786549
22	0xbd6bb67a	-0.05754707
23	0x3d2ef99a	0.042718507
24	0xbd156310	-0.036471426
25	0x3cae9ca0	0.021314919
26	0xbdb4cbe7	-0.08827954
27	0xba0c3500	-0.0005348474
28	0xbd276e03	-0.0408764
29	0xbd8df33d	-0.0693116
30	0xbccf1f38	-0.025283441
31	0xbd7f4133	-0.06231804
32	0xbd623a80	-0.05523157
33	0xbdbbffeb	-0.09179672
34	0xbc92f6cc	-0.017939948
35	0xbd701143	-0.058610212
36	0x3d4cb622	0.049978383
37	0x3d909d89	0.070612974
38	0x3d8a9c35	0.067680754
39	0x3dc6a975	0.0970029
40	0x3d8fdf51	0.07025016
41	0xbaadd680	-0.0013262779
42	0x3dc0b45b	0.094094
43	0xbd10a670	-0.035314977
44	0x3c182bd8	0.009287797
45	0x3d74e206	0.059785865
46	0xbc116bb0	-0.008875772
47	0x3d1ccc6a	0.038280882
48	0xbb792240	-0.00380148
49	0xbd513fed	-0.051086355
50	0x3d969071	0.07351769
51	0xbda773a8	-0.081763566
52	0x3dc6fdbf	0.09716367
53	0x3dc758a1	0.097337015
54	0xbd951512	-0.072794095
55	0xbdbb4113	-0.09143271
56	0xbdbce82a	-0.09223969
57	0xbdab1766	-0.08354072
58	0x3dc8b8ab	0.098008476
59	0xbd36ea40	-0.044656992
60	0xbd9798ca	-0.07402189
61	0xbd48d120	-0.049027562
62	0x3db36b77	0.08760732
63	0x3d63e8de	0.055642
64	0xbd871174	-0.06595126
65	0x3dc80cc9	0.097680636
66	0x3c998440	0.01873982
67	0x3cb6c3d4	0.022310175
68	0x3d5960ee	0.053070955
69	0x3daad401	0.08341218
70	0xbd83e76a	-0.06440623
71	0xbd1dcbb3	-0.03852434
72	0x3cb9be60	0.022673786
73	0xbceca1a8	-0.028885677
74	0x3dab40cb	0.08361968
75	0x3c0b6558	0.008508049
76	0x3c956d28	0.018240526
77	0xbd9b68f3	-0.07588377
78	0x3cfef9e4	0.031125017
79	0xbb3eb500	-0.0029099584
80	0xbdc4b67d	-0.096051194
81	0x3d816283	0.06317618
82	0xbcbf68f8	-0.023365483
83	0xbcd1ad48	-0.025595322
84	0xbbbfc150	-0.005851902
85	0x3d9556f7	0.07291978
86	0x3d92f883	0.07176306
87	0xbcbfdba0	-0.023420155
88	0xbc821708	-0.015880123
89	0x3d388062	0.04504431
90	0xbd42872d	-0.047492195
91	0x3a585f00	0.0008253902
92	0x3dc9db81	0.0985632
93	0x3ca02958	0.019550964
94	0x3bfafb30	0.0076593384
95	0xbdbdf40b	-0.09275063
96	0x3d750ffe	0.059829704
97	0x3d8540b1	0.065064795
98	0xbcfb38a0	-0.03066665
99	0xbba19ce0	-0.004932031
100	0x3d30c58e	0.043157153
101	0x3dc468d9	0.095903106
102	0xbd543e37	-0.051817145
103	0xbda0467e	-0.07825945
104	0xbdb44da7	-0.088038735
105	0xbd3d3d57	-0.046201076
106	0x3ca05d38	0.0195757
107	0xbd553e37	-0.052061286
108	0x3c7eb350	0.015545681
109	0x3d5b00fe	0.053467743
110	0x3d4b631e	0.049655072
111	0xbd9f68a5	-0.07783631
112	0x3d26b22e	0.04069727
113	0x3d82594b	0.063646875
114	0xbbabd6a0	-0.005244091
115	0x3da3220f	0.079654805
116	0x3afb6e80	0.0019182712
117	0x3db15e6d	0.086605884
118	0xbdc52a2f	-0.096271865
119	0x3da01a09	0.07817466
120	0x3d7fdb12	0.06246478
121	0xbdc4b78d	-0.09605322
122	0xbdc6c268	-0.09705049
123	0xbd1e189d	-0.03859769
124	0xbdb50a48	-0.088398516
125	0x3db00f75	0.08596698
126	0x3d16d4d2	0.036824055
127	0x3cd97d04	0.02654887
128	0x3d21be82	0.039488323
129	0xbd02d824	-0.03194441
130	0xbd3b64a7	-0.045750286
131	0xbd1636a0	-0.03667319
132	0xbdc1590a	-0.09440811
133	0xbd339733	-0.043845367
134	0x3d3b233a	0.04568789
135	0x3c658de8	0.014010884
136	0x39f1eb00	0.0004614219
137	0x3d8520a7	0.065003686
138	0xbd40c920	-0.047066808
139	0xbd03ae74	-0.032148793
140	0x3d152782	0.03641463
141	0xbdc90515	-0.098154224
142	0xbd8e56ee	-0.06950174
143	0xbdb1a770	-0.08674514
144	0xbd66e23d	-0.0563681
145	0xbd6368f0	-0.055519998
146	0x3d82bb19	0.06383342
147	0x3b1fd560	0.0024388656
148	0x3d6ea29e	0.058260553
149	0x3d83b921	0.06431795
150	0x3c2bba00	0.010481358
151	0xbcbbfb88	-0.022947088
152	0x3dc7da09	0.09758384
153	0xbd7598d0	-0.059960186
154	0xbc0aeb00	-0.00847888
155	0xbdb541bf	-0.08850431
156	0x3da73019	0.08163471
157	0x3d805157	0.06265514
158	0xbd9c93e3	-0.07645395
159	0xbcea9968	-0.028637603
160	0x3cccf24c	0.02501788
161	0xbd921802	-0.071334854
162	0x3db9b4e9	0.09067709
163	0x3d58736e	0.052844457
164	0x39f75800	0.00047177076
165	0x3c1dc6b0	0.00962989
166	0x3dc275ed	0.09495149
167	0x3d1a74aa	0.037708916
168	0x3da086a1	0.078381784
169	0x3d239ad2	0.03994257
170	0xbd30e107	-0.043183353
171	0x3d9bb04d	0.07601986
172	0xbd4c3f3a	-0.049864985
173	0xbd88cd4e	-0.06679784
174	0x3c5b33d0	0.013379052
175	0x3b861ab0	0.004092537
176	0x3b8710e0	0.0041218847
177	0x3d7760a2	0.06039489
178	0x3ba47b80	0.005019605
179	0xbd6ca497	-0.057774153
180	0x3d2574e2	0.04039467
181	0xbdbe0358	-0.092779815
182	0xbdb2e9e3	-0.087360166
183	0x3d08285a	0.033241607
184	0x3d7e734e	0.062121682
185	0xbd17cc9c	-0.037060365
186	0x3d3f970a	0.0467749
187	0xbd65fbb7	-0.056148257
188	0xbdba0005	-0.09082035
189	0xbd014ca0	-0.031567216
190	0xbd20e7b3	-0.039283466
191	0x3bfd6420	0.007732883
192	0x3a8e3480	0.0010849386
193	0xbdace887	-0.084427886
194	0x3b7ccaa0	0.0038572922
195	0x3b536160	0.0032254085
196	0xbd50e287	-0.050997283
197	0x3d91b239	0.071140714
198	0x3caaf380	0.020868063
199	0xbd10dbfc	-0.035366043
200	0x3d8dd6e7	0.06925755
201	0xbd7bc3d3	-0.06146605
202	0xbcdc0498	-0.02685766
203	0x3cc64c54	0.024206318
204	0x3dba2c21	0.09090448
205	0xbdc1acc7	-0.09456783
206	0x3d19fa5e	0.037592284
207	0x3d3b0df2	0.045667596
208	0xbdc7b77d	-0.097517945
209	0xbd4746a0	-0.048651338
210	0x3d1bedd2	0.0380686
211	0xbac41d40	-0.001496233
212	0xbda2285b	-0.079178534
213	0x3d3fd6ea	0.046835817
214	0x3d55c392	0.052188464
215	0x3da92b95	0.08260266
216	0x3cfdf7bc	0.031001918
217	0xbb686700	-0.0035461783
218	0x3c8f0da8	0.017462566
219	0xbcd6812c	-0.02618464
220	0xbbbde2b0	-0.0057948455
221	0xbd82fbd5	-0.063956894
222	0xbd409810	-0.047020018
223	0xbd385087	-0.04499867
224	0x3b0a3600	0.0021089315
225	0x38795000	5.9440732e-05
226	0xbd57cce7	-0.052685644
227	0x3d7548a2	0.05988372
228	0x3d298f32	0.041396327
229	0xbbc88080	-0.006118834
230	0xbd0370bc	-0.032089934
231	0xbbd75060	-0.0065708607
232	0x3cfb5414	0.03067974
233	0xbd5da1f3	-0.054109525
234	0xbd51c253	-0.051210713
235	0x3dc6d11b	0.097078525
236	0xbdbdb0af	-0.09262215
237	0x3db293ab	0.08719572
238	0xbda97f46	-0.082762286
239	0xbd6a5f03	-0.057219516
240	0xbd10939c	-0.03529702
241	0xbdbc6043	-0.09198048
242	0xbd57cda3	-0.052686345
243	0xbdc05f97	-0.09393232
244	0xbd697dad	-0.05700462
245	0xbdc6b587	-0.09702592
246	0x3da86e75	0.08224193
247	0x3d8e8c97	0.06960409
248	0xbd5a89c3	-0.053354036
249	0x3c842b74	0.016134001
250	0xbdc3edc2	-0.09566833
251	0xbd4885dd	-0.048955787
252	0x3da118fb	0.07866093
253	0x3d489d4e	0.048978142
254	0x3da87a6d	0.08226476
255	0x3d528ada	0.05140195

lstm.bias_hh_l0 f4 [400]
0	0x3dad673f	0.08466958
1	0x3b989a30	0.0046570525
2	0xbc3fb198	-0.0117000565
3	0x3cd9a1e4	0.026566453
4	0x3d903299	0.07040901
5	0x3dc4ee09	0.09615714
6	0xbdc580d8	-0.096437156
7	0x3d8beb41	0.068319805
8	0x3d30feae	0.04321163
9	0x3d85cd2b	0.06533273
10	0xbd6946bd	-0.056952227
11	0x3d56a24a	0.052400865
12	0x3d209eca	0.039213933
13	0xb9b12d00	-0.00033793598
14	0xbae918c0	-0.0017783865
15	0x3cd47bfc	0.025938027
16	0x3d6490fe	0.055802338
17	0xbc4c8b18	-0.012484334
18	0x3c1206a8	0.00891272
19	0xbd44f7d0	-0.048087895
20	0xbdb97ec8	-0.09057385
21	0x3cd8985c	0.026439838
22	0xbd9fa176	-0.07794468
23	0xbcb16ae0	-0.021657407
24	0x3d9f229d	0.07770274
25	0xbdbbe6dd	-0.09174893
26	0x3da837b5	0.0821375
27	0x3ceb50a4	0.028724976
28	0x3cc0c74c	0.023532532
29	0xbd629533	-0.05531807
30	0xbbd451a0	-0.006479457
31	0xbd885868	-0.06657487
32	0x3d058202	0.03259469
33	0x3ac3f8c0	0.0014951453
34	0xbd18bcac	-0.037289307
35	0x3dbb2fc9	0.09139974
36	0x3db22141	0.08697749
37	0x3cdc0bcc	0.026861094
38	0xbd8d56e8	-0.06901342
39	0x3d466d42	0.04844404
40	0xbca48820	-0.02008444
41	0xbd07e0bc	-0.033173308
42	0x3b697fa0	0.003562905
43	0xb9ff3d00	-0.0004868284
44	0xbad9e140	-0.0016622916
45	0xbd55e317	-0.052218523
46	0x3c289d68	0.010291435
47	0xbdb46f9d	-0.08810351
48	0x3c3b8f30	0.011447713
49	0x3d903969	0.070422
50	0xbd79351d	-0.06084167
51	0x3da5f569	0.08103449
52	0x3d53c8c2	0.05170513
53	0x3d1ca0d2	0.038239308
54	0xbd613650	-0.054983437
55	0xbc035750	-0.008016422
56	0xbcbe8ac0	-0.02325952
57	0x3cb68520	0.022280276
58	0xbd6be153	-0.057587933
59	0xbd95fd1a	-0.07323666
60	0xbd456007	-0.048187282
61	0x3d94dbdd	0.07268498
62	0xbdafbf52	-0.08581413
63	0x3d9cdd4d	0.07659397
64	0xbcc80db8	-0.024420604
65	0x3d681ab2	0.056666084
66	0x3c002410	0.007821098
67	0x3c1210d8	0.008915149
68	0x3d5be3a6	0.0536839
69	0x3d7338c2	0.0593803
70	0x3da7d1fb	0.081943475
71	0x3d6a5c26	0.057216786
72	0x3dc10377	0.09424489
73	0xbc05c8a8	-0.008165516
74	0xbda4feb8	-0.08056396
75	0xbd882682	-0.0664797
76	0x3daad019	0.08340473
77	0xbda98422	-0.082771555
78	0xbcefc168	-0.029267028
79	0xbd27af3d	-0.040938605
80	0xbb151960	-0.002275072
81	0xbd796bd7	-0.06089386
82	0xbc79cea8	-0.015247025
83	0xbda0d190	-0.07852471
84	0x3d3e216e	0.0464186
85	0xbd64130d	-0.05568223
86	0x3dbea271	0.09308327
87	0xbcb24798	-0.021762654
88	0xbd1e1ca3	-0.03860153
89	0xbca19078	-0.019722208
90	0xbdc7deeb	-0.09759315
91	0xbd4188c3	-0.047249567
92	0xbcf40b58	-0.029790565
93	0xbd89ca7c	-0.06728074
94	0xbd8b6570	-0.06806457
95	0xbd9ec42a	-0.07752259
96	0xbbaa9b00	-0.0052064657
97	0xbd14bada	-0.036311008
98	0x3dc61711	0.09672368
99	0xbd7cbaa3	-0.06170143
100	0x3dba1681	0.090863235
101	0xbbb496d0	-0.0055111423
102	0xbdb8ef0f	-0.09029972
103	0x3ba8ede0	0.00515531
104	0xbdba16fa	-0.09086414
105	0x3ca01c74	0.019544818
106	0xbc547098	-0.012966298
107	0xbd798270	-0.06091541
108	0xbd86961d	-0.065716006
109	0x3d07b88e	0.03313499
110	0xbd2730ca	-0.040818013
111	0xbc3b1490	-0.011418477
112	0xbbb93a20	-0.005652681
113	0x3c741b30	0.01489906
114	0xbcca3398	-0.024682805
115	0xbd92c19b	-0.071658336
116	0x3d7a4a82	0.061106212
117	0xbd924396	-0.07141797
118	0xbd4d5440	-0.050129175
119	0x3cd74ce4	0.026281781
120	0xbd608383	-0.05481292
121	0x3d294d8a	0.041333713
122	0xbdb4f0e2	-0.08835007
123	0xbc354ba8	-0.011065401
124	0xbd7d6d5a	-0.061871864
125	0xbd9a903d	-0.075470425
126	0xbd24c83d	-0.040230025
127	0x3c472c80	0.012156606
128	0xbba68880	-0.00508219
129	0x3d9b54ad	0.0758451
130	0x3dca7cd7	0.098870926
131	0xbd445ced	-0.047940183
132	0xbd89417d	-0.06701944
133	0x3cfb7cb4	0.030699112
134	0xbd707003	-0.058700573
135	0x3d915f13	0.07098212
136	0xbd0ad4c4	-0.033894315
137	0xbd0c8b1c	-0.034312353
138	0xbc823498	-0.01589422
139	0xbbdb6a00	-0.006695986
140	0x3da46ae7	0.080282025
141	0xbdaa0872	-0.08302392
142	0x3dca664d	0.098827936
143	0xbd2382fd	-0.039919842
144	0xbd72a0ad	-0.059235264
145	0xbd265373	-0.040606927
146	0x3d5a41a2	0.05328525
147	0xbd22533a	-0.039630152
148	0xbd3ef13a	-0.04661677
149	0xbda5935e	-0.08084749
150	0xbcf704cc	-0.030153655
151	0x3cccc4ec	0.024996243
152	0x3c9fb2c0	0.019494414
153	0xbda5eec3	-0.08102181
154	0x3c1b22b0	0.009468719
155	0x3db5f775	0.08885089
156	0xbd94f47e	-0.07273196
157	0x3dc4d465	0.096108235
158	0x3d87f6c3	0.06638863
159	0xbdbc1dc7	-0.09185367
160	0xbdc9eff5	-0.09860221
161	0x3d061f3a	0.032744624
162	0x3d433f6e	0.047667913
163	0xbdca7328	-0.098852456
164	0xbda55f92	-0.08074869
165	0xbcbfe160	-0.023422897
166	0xbd270a70	-0.04078144
167	0x3c8e9ef4	0.01740978
168	0x3d7c48b6	0.06159278
169	0xbd64b387	-0.055835273
170	0x3d4f5126	0.0506145
171	0x3d56f2ea	0.052477755
172	0x3d9c606b	0.07635578
173	0x3cf0a804	0.029376991
174	0x3d43e772	0.047828145
175	0x3d64fac2	0.055903204
176	0xbd41f24a	-0.047350205
177	0x3c09d6f0	0.0084130615
178	0x3c923e4c	0.017851971
179	0xbbd6f8e0	-0.00656043
180	0xbcac3fcc	-0.021026514
181	0xbda39ac8	-0.079885066
182	0x3dbb4c61	0.091454275
183	0x3dc35da1	0.09539343
184	0xbdc26e50	-0.09493697
185	0x3d4b272a	0.049597897
186	0xbc8ffed8	-0.017577574
187	0x3dc340b5	0.09533826
188	0xbd44c1d3	-0.048036408
189	0xbcfe79b8	-0.0310639
190	0xbda9b356	-0.08286159
191	0x3c7a20b0	0.015266582
192	0x3cff9dcc	0.031203173
193	0xbdbc252a	-0.09186776
194	0xbdb879aa	-0.090075806
195	0x3d9178b1	0.07103098
196	0x3a37ee80	0.0007016435
197	0xbdaab2fa	-0.08334918
198	0xbdaee118	-0.08539027
199	0xbd3cc470	-0.046085775
200	0xbda2d46a	-0.07950671
201	0xbdb4593f	-0.08806085
202	0xbbccba20	-0.0062477738
203	0xbdaaa4e8	-0.083322346
204	0x3dc557a1	0.096358545
205	0xbd461af0	-0.048365533
206	0x3d8c721b	0.068577014
207	0xbd3dc433	-0.04632969
208	0x3cffdc0c	0.031232856
209	0xbdb6a932	-0.0891899
210	0xbc9c10cc	-0.019050978
211	0x3d379e2e	0.044828586
212	0x3cff66ec	0.031177007
213	0xbc7838c0	-0.015150249
214	0x3d8304e1	0.06397415
215	0x3d039cf6	0.03213211
216	0x3c186668	0.009301759
217	0xbd86f4d5	-0.06589667
218	0x3d88dfbf	0.06683301
219	0x3d48ec0a	0.04905323
220	0xbccdf6d8	-0.025142118
221	0xbd1fd04d	-0.03901701
222	0xbce151f4	-0.027504899
223	0x3d8e5119	0.06949062
224	0xbd01f7ba	-0.03173039
225	0xbc1ac698	-0.0094467625
226	0x3c650ae8	0.013979651
227	0xbda8ea42	-0.08247806
228	0xbd51a57a	-0.0511832
229	0xbcdf0974	-0.027226187
230	0x3ce8708c	0.028373979
231	0x3db8a615	0.09016053
232	0xbb566500	-0.003271401
233	0xbc9c3fb8	-0.019073352
234	0x3d73e31a	0.059542753
235	0x3d37f2f6	0.04490944
236	0xbd081564	-0.033223525
237	0xbc900dcc	-0.017584704
238	0x3d85bcc9	0.065301485
239	0x3d569fde	0.052398555
240	0x3d95a663	0.073071264
241	0x3dba6f31	0.09103239
242	0x3a9ec140	0.0012112036
243	0xbdad9b33	-0.084768675
244	0x3d8e037f	0.069342606
245	0x3dc0efdf	0.09420752
246	0x3d06c872	0.032906003
247	0x3d93028f	0.071782224
248	0x3d4906fe	0.049078934
249	0xbd18be56	-0.037290893
250	0xbd0cef66	-0.034407996
251	0x3d8d75d1	0.06907237
252	0x3dae67f1	0.08515919
253	0x3da16ebd	0.0788245
254	0xbda2c0f0	-0.07946956
255	0xbd004b70	-0.031321943

fc.weight f4 [1, 100]
0	0x3d8ed963	0.06975057
1	0x3d070db2	0.032972045
2	0xbaac44c0	-0.0013143048
3	0xbd1bdfba	-0.03805516
4	0x3d935bdf	0.071952574
5	0xbc196480	-0.00936234
6	0xbc977ac0	-0.018491149
7	0x3dbe2f1b	0.092863284
8	0xb9461c00	-0.00018893182
9	0xbda2ae98	-0.07943457
10	0x3dafa2d3	0.08575978
11	0xbb1fc9c0	-0.0024381727
12	0xbc092770	-0.008371219
13	0x3cdffa04	0.027340896
14	0x3db85131	0.08999861
15	0xbc9c9738	-0.019115075
16	0x3d60539e	0.054767244
17	0xbcba6414	-0.0227528
18	0x3b843350	0.0040344372
19	0xbdadbfb3	-0.08483829
20	0x3cd859bc	0.026409976
21	0x3d26ba0e	0.04070478
22	0xbce9afac	-0.02852615
23	0x3c46f480	0.012143254
24	0xbd07bbbc	-0.03313802
25	0xbce14cb4	-0.027502395
26	0x3da640c1	0.081178196
27	0xbc4e1e80	-0.012580514
28	0xbd819048	-0.063263476
29	0x3c625000	0.013813019
30	0xbd832ba6	-0.0640481
31	0x3ce2f614	0.02770523
32	0x3c9a3bb8	0.018827304
33	0x3d7670d2	0.060166188
34	0xbcb2a578	-0.021807417
35	0x3b827380	0.003981054
36	0xbd5bf837	-0.053703513
37	0xbd5fb04d	-0.054611493
38	0x3c3deb30	0.011591718
39	0x3d9f0777	0.07765096
40	0xbda4496b	-0.08021816
41	0xbc813594	-0.015772618
42	0xbc9f4f48	-0.019446984
43	0x3dc30a01	0.095233925
44	0xbda78145	-0.08178953
45	0xbdc9be6a	-0.09850772
46	0xbc5d4230	-0.01350455
47	0xb7a4b000	-1.963228e-05
48	0x3da2fbd7	0.07958191
49	0xbd994935	-0.07484666
50	0x3babf260	0.005247399
51	0xbdc9ebd3	-0.09859433
52	0x3d8b053f	0.0678811
53	0xbd87e5ac	-0.06635603
54	0xbd9d4aab	-0.076802574
55	0x3d2b3e2a	0.04180733
56	0x3d2c679a	0.04209099
57	0xbd91b86e	-0.07115255
58	0x3d5892fe	0.052874558
59	0xbcaf90c8	-0.021431342
60	0xbdb041c2	-0.08606292
61	0x3d5c89be	0.0538423
62	0x3dc8f487	0.09812265
63	0x3bfa7760	0.007643625
64	0xbcd65374	-0.02616284
65	0x3d40177a	0.04689739
66	0xbd4e832d	-0.050418068
67	0xbd6a5c20	-0.057216763
68	0xbbf7a3e0	-0.007557377
69	0xbd61e5c0	-0.055150747
70	0x3d7ee072	0.062225766
71	0xbc520558	-0.012818657
72	0x3d86bf97	0.065795116
73	0xbca4a88c	-0.0200999
74	0x3d3179fe	0.04332923
75	0xbcda9f14	-0.026687182
76	0xbc18da70	-0.009329423
77	0x3da2e2df	0.079534285
78	0x3d017d8e	0.03161388
79	0xbb91d5d0	-0.0044505373
80	0x3d53fb12	0.05175311
81	0x3c082758	0.0083101615
82	0xbdaa43b2	-0.08313693
83	0xbdcb623b	-0.09930845
84	0x3d3713f2	0.044696756
85	0xbd80d685	-0.06290916
86	0xbcbb45b8	-0.022860393
87	0xbd9ba4b2	-0.075997725
88	0xbbcaeb30	-0.0061925873
89	0x3d0b1732	0.033957668
90	0x3d1b0d1a	0.03785429
91	0xbd774947	-0.060372617
92	0x3da403d1	0.080085404
93	0x3d96717f	0.073458664
94	0x3d10859a	0.035283662
95	0xbd089c8c	-0.03335242
96	0x3dc057d9	0.093917556
97	0xbda46336	-0.080267355
98	0xbd44dffd	-0.048065174
99	0xbd0f501c	-0.034988508
