savemodel/model.pth (torch, 175476 bytes, 5 tensors)

lstm.weight_ih_l0 f4 [400, 6]
000000 0d ad 3c bd 80 43 14 bc eb 55 c4 bd 79 eb 9e 3d
       -0.04606347 -0.009049296 -0.095867 0.077597566
000010 e2 c3 25 3d 40 2b 11 bc 4c 95 df bc 76 04 6e 3d
       0.04047001 -0.008860409 -0.02729287 0.058109723
000020 d0 74 36 bc 12 12 7a 3d 86 a6 01 bd 9e d1 a7 bd
       -0.011136249 0.06105239 -0.03165295 -0.08194278
000030 7d e3 53 bd 1d f0 58 bd 40 71 dc bc 85 5f a0 bd
       -0.05173062 -0.052963365 -0.02690947 -0.07830719
000040 b0 c7 a6 bd 06 19 7c 3d 9b 76 99 bd ad f7 31 bd
       -0.08143556 0.0615473 -0.07493325 -0.043449093
000050 cc aa b2 3c 95 b7 91 bd e7 69 8c 3d 60 ef 89 3c
       0.021809958 -0.071150936 0.06856137 0.016837776
000060 c4 67 d1 3c cc fd ba bc 52 14 7e 3d a4 4f 8c bd
       0.025562175 -0.022826098 0.062031098 -0.06851128
000070 99 71 92 3d d8 24 0a bc a9 ec 8c 3d 7e 1f 13 3d
       0.07150573 -0.008431636 0.06881077 0.035918705
000080 00 e6 23 3b 58 fd 91 bc a5 a5 b9 bd 74 1b bc 3c
       0.0025008917 -0.017820999 -0.09064797 0.02296231
000090 39 8a c4 3d 00 e0 b7 b9 90 af 9d bd 18 7d 85 3c
       0.095966764 -0.00035071373 -0.076995015 0.016295
0000a0 56 62 24 3d 03 78 66 bd 00 c9 e4 bb 2d 85 a4 bd
       0.040132843 -0.056266796 -0.006981969 -0.08033214
0000b0 22 c5 b8 bd 98 98 cc 3c fa b0 77 3d e7 ff 87 3d
       -0.09021975 0.024975106 0.060471512 0.066406064
0000c0 c3 0b b9 bd 3e 91 57 3d 68 d5 a9 3c 33 e8 81 3d
       -0.090354465 0.052628748 0.020731643 0.063431166
0000d0 b0 1d 74 3c 01 c5 8e 3d df 16 b2 bd bc 16 16 bd
       0.014899656 0.06971169 -0.086957686 -0.036642775
0000e0 1f e1 8f 3d 20 62 a4 bb 62 91 56 3d 53 5d 87 3d
       0.0702536 -0.00501658 0.05238474 0.06609597
0000f0 60 9c d2 bb 06 8a 00 bd f8 6a ba bc 02 93 58 3d
       -0.0064273328 -0.03138163 -0.022756085 0.052874573
000100 58 6e 8b bc fe 87 5a 3d d0 f1 fa bb 00 3f 35 3c
       -0.01702039 0.05335235 -0.007658221 0.011062384
000110 80 fb 8a bb 52 a4 65 3d e8 88 4b bc 14 50 f5 bc
       -0.004241407 0.05606491 -0.012422778 -0.02994541
000120 b3 24 85 3d 21 f3 c4 3d be 23 60 3d 91 c9 88 3d
       0.065011404 0.09616686 0.054721586 0.06679071
000130 54 50 cf bc 3d 09 78 bd b6 6d a7 bd d7 3a 2e bd
       -0.025306858 -0.060555685 -0.081752226 -0.042536583
000140 b4 7e 15 bd d4 6e e0 bc 54 13 cb 3c c0 74 9a 3c
       -0.036497787 -0.027396597 0.02478949 0.018854499
000150 b4 64 9f bc 47 38 af bd 97 be c0 3d 77 0f 55 bd
       -0.019457199 -0.08555656 0.09411352 -0.0520167
000160 8e 9b 8d bd b2 48 ba bd 13 d2 b1 bd 59 2f b5 3d
       -0.06914435 -0.09095897 -0.086826466 0.088469215
000170 1e 13 71 3d ec 8a 12 bd 22 55 2e 3d 27 4c 21 bd
       0.058856122 -0.035777017 0.042561658 -0.039379265
000180 c0 2e 25 bc d4 fa 91 3c 28 26 78 3c 1e 32 9f bd
       -0.010081947 0.0178198 0.015145816 -0.07773231
000190 89 5d ab 3d dd 2b 88 bd 00 4a 1d 3b 40 a4 c3 bc
       0.0836745 -0.06648991 0.0024000406 -0.023882031
0001a0 59 ad c8 3d 1b dd b7 bd 78 f8 e7 bc d1 65 c6 3d
       0.097986884 -0.089777194 -0.028316721 0.09687389
0001b0 96 d6 6f 3d e8 5d 7a 3c 02 ed 55 3d bf 8d c6 3d
       0.058554254 0.015281178 0.05222798 0.09695005
0001c0 ac f6 06 bd 84 2b 86 bd 0d 99 a2 bd 3b ee ae bd
       -0.03295009 -0.06551269 -0.07939348 -0.085415326
0001d0 f2 56 06 3d 69 60 cb 3d 60 09 e4 bc 40 fc 2b bd
       0.03279776 0.09930498 -0.027836502 -0.04198861
0001e0 f2 8a 6b 3d 4e d6 36 3d e0 9d fa 3b f4 80 99 3c
       0.057505555 0.04463797 0.0076482147 0.018738247
0001f0 a8 9d 9c bd 5d 94 46 bd 41 40 8f 3d 30 7b 79 bd
       -0.07647258 -0.048481334 0.06994677 -0.060908496
000200 f7 0a 48 bd 3e ca 02 3d b0 13 80 bd 6e fe 8d bd
       -0.048838582 0.031931154 -0.06253755 -0.06933294
000210 95 79 af bd 80 88 73 bc a1 fb bb 3d 10 6e 68 3c
       -0.08568112 -0.014864087 0.09178854 0.014186397
000220 98 4c b0 bd d2 d0 80 bd 4e 8e 9c bd 00 0c 4f bc
       -0.08608359 -0.06289829 -0.0764433 -0.012637138
000230 cd f8 b7 bd 92 25 23 3d 98 93 03 bc 20 ef d3 bc
       -0.08983002 0.03983075 -0.008030795 -0.02587086
000240 d4 fa f9 bc 6f c6 b2 bd 15 79 a6 3d 37 96 b1 bd
       -0.030515112 -0.087292545 0.08128563 -0.08671229
000250 4a 3c 2f bd 27 07 76 bd ba 4c 6d 3d a2 1d bf bd
       -0.042782106 -0.060065415 0.0579345 -0.09331824
000260 57 4d cc 3d d8 62 6a bc 05 29 a0 3d 15 5c 8c bd
       0.09975689 -0.014305793 0.07820324 -0.06853501
000270 86 4f 2f 3d 11 7e 8b 3d a0 ee a3 bd a0 07 55 bd
       0.04280045 0.06811155 -0.080044985 -0.052009225
000280 7f be 9a 3d 3c 58 0c bd d0 d5 d6 3b 8d 62 9b bd
       0.075558655 -0.034263834 0.00655625 -0.075871564
000290 c0 50 2a 3b 64 9a f6 3c ca 46 6a 3d 6c fb be bc
       0.0025988072 0.030102916 0.057196416 -0.023313247
0002a0 ec d5 12 bd b7 9a 6d bd 86 cd 46 3d 69 7b 89 3d
       -0.035848543 -0.058008876 0.048535846 0.06712992
0002b0 9e 71 95 bd 50 fa b4 bb 08 84 a1 bd b0 f5 d5 bb
       -0.072970614 -0.0055230036 -0.07886511 -0.0065295324
0002c0 01 08 a2 3d d5 e6 89 3d a0 b0 d1 bc cc 79 b2 bc
       0.07911683 0.06733481 -0.025596917 -0.021786593
0002d0 8d e0 a7 3d 3e ea 6f 3d 80 da e0 bb 9b a3 b3 bd
       0.081971265 0.058573 -0.0068619847 -0.0877144
0002e0 99 3d c6 3d aa 17 b8 bd 45 db 94 3d cc 26 87 bc
       0.096797176 -0.089888886 0.07268385 -0.016497992
0002f0 98 81 8d bd 00 8e b1 ba 60 12 88 3b dd 01 a6 3d
       -0.06909484 -0.0013546348 0.004152581 0.08105824
000300 e9 27 c3 3d 3a 0a 72 bd 73 d3 7e bd c0 f7 8d 3c
       0.09529097 -0.059091784 -0.062213372 0.01733005
000310 98 44 83 3c 4e d5 26 3d 04 70 dc 3c 48 f9 b6 3c
       0.016023919 0.040730767 0.026908882 0.022335663
000320 05 89 86 3d a0 27 30 bb a5 52 85 3d 02 08 34 3d
       0.06569103 -0.0026879087 0.06509904 0.04395295
000330 f4 5c a7 bc 20 4d 0d bd 92 f4 be bd 18 b8 52 bc
       -0.020430066 -0.03449738 -0.09323992 -0.012861274
000340 a9 16 9d 3d d6 bb 1f 3d 00 48 ad bc 48 38 a3 bc
       0.07670338 0.038997494 -0.021152496 -0.019924298
000350 54 75 ce bc ed 48 b6 3d e4 60 d5 3c a9 8b b8 3d
       -0.02520243 0.08900628 0.026047178 0.09011013
000360 b4 2a b6 3c df 14 b2 bd bc 72 d2 3c b7 ac 84 3d
       0.02223716 -0.08695387 0.025689475 0.06478255
000370 40 f8 9f bd 4c 50 da bc ca 87 15 3d 5d 23 b2 bd
       -0.07811022 -0.026649617 0.03650645 -0.08698151
000380 3b 35 c3 bd a0 25 27 bd b3 55 c3 bd 50 d7 02 bc
       -0.09531637 -0.040807366 -0.0953783 -0.007985905
000390 91 cc 8b 3d ea 40 14 3d 0d 83 c1 bd 73 2e 56 bd
       0.06826127 0.03619472 -0.09448824 -0.05229039
0003a0 8a 4e 42 3d 8c f7 f5 bc a9 25 c7 3d dc 90 06 bd
       0.047438182 -0.030025266 0.0972398 -0.032852992
0003b0 02 db 47 3d ce 0a 46 3d 4c 79 8a bd 05 f3 b8 3d
       0.048792847 0.048350148 -0.06761417 0.09030727
0003c0 0b 83 b4 3d ca 14 03 bd fc 8f 13 bd 5a d9 50 bd
       0.08814057 -0.032002248 -0.036025986 -0.050988533
0003d0 55 04 cc bd b2 2a 8c bd c1 64 b3 3d 8a 33 78 3d
       -0.09961764 -0.06844081 0.08759452 0.060596026
0003e0 c6 3e 6b 3d e0 6b f2 3b 06 30 50 3d f0 c8 47 3c
       0.057432912 0.0073981136 0.05082705 0.012193903
0003f0 97 d4 77 bd a2 ec 31 3d 90 0c 7c bc a0 c7 8b bc
       -0.060505476 0.04343856 -0.0153838545 -0.017062962

lstm.weight_hh_l0 f4 [400, 100]
000000 2a ba 21 bd c8 33 ad bc 0c 5b 80 bd a0 27 8b bc
       -0.03948418 -0.021142855 -0.06267366 -0.016986668
000010 37 ea 89 3d 28 03 aa bc 50 0e d4 3b 54 d8 a6 3c
       0.06734126 -0.020753458 0.0064714327 0.020366825
000020 1d 56 ba bd 00 2c 54 bc f0 26 32 bd e2 a7 3f 3d
       -0.09098456 -0.012949944 -0.043494165 0.046790965
000030 46 d3 97 bd e1 6b 80 3d 39 0b 96 3d 59 e9 a2 3d
       -0.07413344 0.06270576 0.07326359 0.07954664
000040 8b 94 ae 3d 83 ad a5 3d 12 29 32 3d 82 d3 2e 3d
       0.08524426 0.08089735 0.0434962 0.04268218
000050 0a 34 aa bd e0 b6 ec bc f7 91 c5 3d 5b 68 81 3d
       -0.08310707 -0.028895795 0.09646981 0.06318732
000060 ea d1 27 3d b5 3b 8d bd 58 99 f1 bc d0 d9 90 3b
       0.040971674 -0.06896154 -0.029492065 0.0044204965
000070 0c 86 10 bd f0 79 52 bd 7d ef 47 bd 7b 08 9d bd
       -0.035284087 -0.05138582 -0.04881238 -0.07667633
000080 36 9b 6f 3d 13 6c 58 bd 88 69 8c bc f0 0d 18 3c
       0.05849763 -0.052837443 -0.017140165 0.009280667
000090 38 37 87 bd 33 97 af bd 13 94 c9 3d 75 53 b8 bd
       -0.06602329 -0.08573761 0.09842696 -0.09000293
0000a0 e8 dd 2b bc d8 1d 93 3c c0 57 a6 bd 98 7d 5d bc
       -0.010489918 0.017958567 -0.08122206 -0.013518713
0000b0 f2 bf 19 3d 7b 0e 90 3d d2 70 96 bd c0 da 15 3c
       0.03753657 0.07034012 -0.073457375 0.009146392
0000c0 c0 8d 7d bc bf c1 ad 3d c3 a4 6f bd 50 36 00 3c
       -0.01547569 0.0848422 -0.05850674 0.007825449
0000d0 d7 c9 ac 3d b9 c9 bf 3d 80 80 a7 3b e5 f7 bc bd
       0.084369354 0.093646474 0.005111754 -0.0922697
0000e0 88 c9 92 bc 0c 3e dc 3c 7d 58 8e 3d fc f8 14 bd
       -0.017918363 0.026885055 0.069504716 -0.036370263
0000f0 60 bf 79 bb 1c bf f4 3c 2b 14 9e 3d 5f a1 ac 3d
       -0.0038108453 0.029876284 0.077186905 0.084292166
000100 9f 4f ca bd 2a 1b 11 bd e9 d4 a5 3d 38 ff c5 3c
       -0.09878468 -0.035426296 0.0809725 0.02416955
000110 dd 35 a9 bd b0 1b b3 bd ac ce d1 3c dc 30 fd 3c
       -0.08262227 -0.08745515 0.025611244 0.030907087
000120 00 96 ca 3b a4 48 03 bd ef 94 96 3d 00 33 c2 bd
       0.006182432 -0.032051697 0.073526256 -0.09482384
000130 a0 bb e4 bc c0 d0 80 3a f0 d4 0a bc 8d 01 c4 3d
       -0.027921498 0.0009827837 -0.00847362 0.09570608
000140 20 68 ea bc 30 81 85 bb 00 96 e7 ba 77 62 a3 3d
       -0.028614104 -0.0040742382 -0.0017668605 0.07977765
000150 88 d5 bd 3c c0 1e 81 bd 0f 42 85 3d c0 4e 2f 3b
       0.023173109 -0.06304693 0.0650674 0.002674982
000160 50 e4 6d bc 4d 38 cb 3d d9 2d b2 3d 00 f6 8c 39
       -0.014519766 0.09922848 0.08700151 0.00026886165
000170 48 ee 9a bd 1f 90 98 3d b4 3f ef 3c ca 27 1a 3d
       -0.0756498 0.07449364 0.02920518 0.037635602
000180 34 21 bc bc 32 e5 a8 bd 45 57 c9 bd 78 a3 a1 3c
       -0.022965051 -0.082468405 -0.098310985 0.019731268
000190 73 44 a7 3d c5 3e a6 bd 82 76 38 3d 92 b0 2c 3d
       0.081673525 -0.08117441 0.045034893 0.042160578
0001a0 40 11 10 3b 98 44 07 3c b2 ef 81 bd 76 92 9d bd
       0.0021982938 0.0082561 -0.063445464 -0.07693951
0001b0 f9 e2 a4 3d 0d 71 c0 bd 18 cb b8 3c 80 ad bd 3c
       0.08051104 -0.09396563 0.02255778 0.02315402
0001c0 4d 92 4c bd 33 ff 84 3d e5 e2 b7 3d ec 35 83 bc
       -0.04994421 0.06493988 0.089788236 -0.016016923
0001d0 7d 97 cc 3d a4 01 e2 3c a7 92 3e bd ec d9 cc 3c
       0.099898316 0.027588673 -0.046526577 0.025006257
0001e0 b0 45 c1 3b 7d 20 2b bd a8 bc 3d 3c 60 25 b9 bb
       0.0058982 -0.04177903 0.011580624 -0.0056502074
0001f0 2c 85 bd bc 30 07 1e 3c e0 7b 77 bd 8d e6 2c bd
       -0.02313479 0.009645268 -0.06042087 -0.042212058
000200 2e de 2e 3d 22 d2 6a 3d 91 1f a8 3d 62 b7 35 3d
       0.042692356 0.057329305 0.08209146 0.04436434
000210 3d c6 a3 3d 40 99 01 bb 4f 28 8c 3d d0 56 db bb
       0.07996795 -0.0019775182 0.06843626 -0.0066936985
000220 fa 6c 10 3d 35 fa ba 3d ec 8c e4 bc 26 3c 24 3d
       0.03526018 0.091297545 -0.027899228 0.040096425
000230 5a 88 45 3d 8c 25 0d bd 40 7b 94 3a c7 0d 28 bd
       0.048225738 -0.034459636 0.0011328235 -0.041028764
000240 c3 06 9a 3d 3b 1f c3 bd 17 0e 1a bd 02 25 07 3d
       0.07520821 -0.09527441 -0.037611093 0.032994278
000250 ba 51 81 bd 00 38 3c 3b 0d 4d b9 bd f4 82 f3 bc
       -0.06314416 0.0028719902 -0.090478994 -0.02972553
000260 d0 3d 14 3c 42 15 71 3d ba f5 7a bd c7 f3 8c 3d
       0.00904794 0.058858164 -0.0612695 0.06882434
000270 9c af 0a bd fe 6e 36 3d a0 08 1c bb 60 a9 62 bb
       -0.03385888 0.044539444 -0.0023808852 -0.0034585819
000280 94 c5 80 bc 96 87 05 bd fa 41 99 bd 25 c6 87 3d
       -0.015719213 -0.032600008 -0.07483287 0.0662959
000290 90 bb 63 3c a6 8a 7b 3d 40 f7 7b 3b c4 98 cf 3c
       0.013899699 0.061411522 0.0038446933 0.025341399
0002a0 47 23 32 bd 3a 7a 34 3d a0 29 c4 3b 30 0f 73 bd
       -0.043490674 0.044061877 0.0059864074 -0.059340656
0002b0 5d 1e 36 bd 2d ca 69 bd 56 0d 75 3d 36 47 16 bd
       -0.04446255 -0.057077575 0.05982717 -0.036689006
0002c0 9a 8d 1a 3d 94 a1 f8 bc fa bd 06 3d 18 0c 78 3c
       0.037732698 -0.030350484 0.03289602 0.015139602
0002d0 30 86 67 bc 0d 09 87 bd 13 54 28 bd e7 ea 6a bd
       -0.014131114 -0.06593523 -0.041095804 -0.057352927
0002e0 19 7a ad 3d 4e 0d 1b 3d 43 26 6f bd 9e b3 38 3d
       0.08470554 0.037854485 -0.0583861 0.04509317
0002f0 00 32 00 bd c2 9c 9d bd f6 0a 2f 3d 14 a6 b6 3c
       -0.031297684 -0.07695915 0.042735063 0.02229599
000300 d1 f5 aa 3d c3 0e 78 bd 77 c0 c8 bd b7 8d 4f bd
       0.08347667 -0.060560953 -0.09802335 -0.05067226
000310 53 50 6c bd ac 3d 91 bc b7 10 a2 3d 54 f5 cb bc
       -0.05769379 -0.017729603 0.07913344 -0.024897255
000320 53 57 c7 bd eb bc 9a bd 60 70 a2 bb 06 01 82 bd
       -0.09733453 -0.075555645 -0.004957244 -0.063478515
000330 b0 8f b1 bb 2b cd ae bd ec d4 86 bd 80 4a 12 ba
       -0.00541874 -0.085352264 -0.065835804 -0.00055805594
000340 d4 67 df bc 07 70 aa 3d 9e 71 13 3d c0 5f 5d bc
       -0.027271189 0.08322149 0.035997026 -0.013511598
000350 64 c6 d1 3c a8 3c 9b bd d4 32 82 bc b6 9d 51 3d
       0.025607295 -0.07579929 -0.015893377 0.051175795
000360 2b 85 cc bd e8 0f 0b bc 46 a7 65 3d c8 cd 9c bc
       -0.09986337 -0.008487679 0.056067728 -0.019141093
000370 74 07 92 bc 92 19 1c 3d 51 75 8a 3d 54 f8 d7 bc
       -0.01782582 0.038110323 0.067606576 -0.02636353
000380 1b 9d 9a bd ba 4b 98 bd 20 cf dc 3b da e0 55 bd
       -0.07549497 -0.07436319 0.0067385584 -0.05221639
000390 30 67 58 bd 90 8c 26 bc 2d ef b3 3d e8 fb a9 3c
       -0.052832782 -0.010165349 0.087858535 0.020750001
0003a0 f4 4c c1 3c d7 11 42 bd e3 72 5d bd 8d 12 5b bd
       0.023596264 -0.047380295 -0.054064643 -0.05348449
0003b0 6f e8 92 3d 4a f3 b1 bd 38 dd d0 bc 55 93 c9 3d
       0.071732394 -0.08688982 -0.02549611 0.098425545
0003c0 4d e8 58 bd a0 e2 8e bb 80 d4 86 3b ec 82 f8 3c
       -0.052955914 -0.004360512 0.0041146874 0.030335866
0003d0 53 62 68 bd c8 32 cb bd 20 3c e7 3b ac 91 c1 bc
       -0.056734394 -0.09921795 0.007056728 -0.023629032
0003e0 16 5f 1d 3d a3 c7 35 bd ed 86 92 bd 90 36 5d 3c
       0.03842076 -0.04437984 -0.07154641 0.013501778
0003f0 a8 78 bf bd a3 41 87 3d cf 67 bf bd 18 26 e6 bc
       -0.09349185 0.06604316 -0.09345972 -0.028094336

lstm.bias_ih_l0 f4 [400]
000000 b2 a4 2d 3d 00 1a 9b bd c8 8a c3 bc b0 d3 c7 bd
       0.042393394 -0.075733185 -0.023869887 -0.09757173
000010 38 00 8d 3c 7d b0 8f bd 54 fc 88 3c 30 1e 64 bd
       0.017212018 -0.07016084 0.016721882 -0.05569285
000020 4a fa 6e 3d 4e 08 34 3d 04 0b f4 3c e0 06 00 bd
       0.058344163 0.043953232 0.029790409 -0.031256557
000030 f0 56 42 bd 1a 4c 0e 3d 67 f7 c8 3d 06 2c 2d 3d
       -0.04744619 0.034740545 0.09812813 0.042278312
000040 6c 6c bd 3c 85 0a 91 3d 27 cf c5 bd c0 74 fc ba
       0.023122989 0.070820846 -0.09658652 -0.0019260868
000050 eb 91 b6 3d a6 94 0c bd 3c 83 ef 3c c2 02 48 3d
       0.089145504 -0.03432145 0.029237382 0.048830755
000060 60 fc ca 3b ce bb 5c 3d 01 f7 bd 3d 85 ad b1 3d
       0.006194636 0.053890042 0.09275628 0.08675674
000070 15 d8 bf 3d a8 85 e6 bc b0 c1 90 bd 11 4e aa 3d
       0.09367386 -0.028139904 -0.07068193 0.08315671
000080 b0 bb 9c 3b 47 f1 1c bd a9 8b 81 3d 5c 4a d6 3c
       0.0047831163 -0.038316038 0.06325466 0.026158504
000090 a9 78 ab 3d 56 41 04 3d da 0a a8 bd ba 05 50 bd
       0.083726235 0.03228887 -0.08205195 -0.05078671
0000a0 37 7e 33 bd 94 98 82 bd 66 67 88 bd 98 90 db bc
       -0.04382154 -0.06376758 -0.06660347 -0.026802346
0000b0 9d 15 66 bd 63 4e a6 3d 6a 80 19 3d 1d 94 aa 3d
       -0.056172956 0.0812042 0.03747598 0.083290316
0000c0 d5 0e a2 3d 1a cd ab bd 5b 7b 99 3d ec 24 e6 3c
       0.07912985 -0.083887294 0.07494231 0.028093778
0000d0 17 41 33 bd 80 ab b7 3b b4 2e 18 bd e6 d5 36 3d
       -0.043763246 0.005605161 -0.037153915 0.044637583
0000e0 bc d6 12 bd 00 87 46 bc d4 dc de bc f7 fc ae bd
       -0.035849318 -0.012117147 -0.027204908 -0.08544343
0000f0 cc 06 88 bc de 26 59 3d 00 07 e4 3b f0 37 4c bc
       -0.016604804 0.053015582 0.0069588423 -0.012464508
000100 32 83 59 3d 08 bd 88 3c dd 8a 5f bd fa 99 56 bd
       0.053103633 0.0166917 -0.05457579 -0.052392937
000110 d6 57 4e 3d 80 63 89 ba 1e c3 9d bd 53 97 78 bd
       0.050376736 -0.0010481924 -0.07703231 -0.06069119
000120 22 03 68 3d 48 57 b6 bd f6 96 94 bd 6b 02 96 3d
       0.056643613 -0.08903366 -0.07255356 0.0732468
000130 6e 00 1c 3d 47 3d 7f bd bf fb ac bd 00 78 3a 3a
       0.038086347 -0.062314298 -0.08446454 0.00071132183
000140 e8 7f 03 3c f3 13 ab bd e1 c5 8f 3d 00 b9 11 bb
       0.008026101 -0.083534144 0.07020164 -0.0022235513
000150 ee 2d 2e 3d a0 46 a9 3c 16 71 95 bd 12 6e 04 3d
       0.04252427 0.02066356 -0.0729696 0.032331534
000160 3a 50 6d bd 37 75 c9 bd 28 6f 58 bc 20 bb aa bd
       -0.057937838 -0.0983681 -0.013210095 -0.083364725
000170 db 8e b5 bd 6a 1c 5a bd 80 22 67 bc b9 94 89 3d
       -0.08865138 -0.053249754 -0.014107347 0.0671782
000180 c3 86 31 bd b0 7a de bb a5 84 88 bd 30 99 a9 bd
       -0.04334141 -0.006789528 -0.06665925 -0.08281171
000190 40 87 64 bb 80 71 60 bd 53 b0 c5 bd f3 e7 21 bd
       -0.0034870654 -0.054795742 -0.09652772 -0.039527845
0001a0 43 f0 a3 bd 47 68 bc 3d 1b a8 c0 bd 49 41 85 3d
       -0.08004811 0.09199577 -0.094070636 0.06506593
0001b0 b8 f2 9e 3c 27 e4 78 bd ea f5 09 bd 0e 79 0c 3d
       0.019402847 -0.060764458 -0.033681788 0.034295134
0001c0 3b 0c 80 3d 80 92 2a bd 92 f9 3e 3d 2d 7f 41 bd
       0.06252333 -0.04164362 0.046624728 -0.047240425
0001d0 92 0e 7c 3d e6 7d 22 3d 28 86 3a 3c bb 53 b4 3d
       0.061537333 0.039670847 0.011384524 0.08805033
0001e0 ac d6 94 3c d2 db 34 3d 8d b8 55 bd 01 51 a2 3d
       0.01816877 0.04415495 -0.052177954 0.079256065
0001f0 0c 1a ba 3c d7 f0 8e 3d df 26 83 3d 0f ed 90 3d
       0.022717498 0.0697953 0.064038984 0.07076465
000200 00 cd 40 bd 98 db 27 3c a0 ed 65 bd 8e 5c 97 bd
       -0.047070503 0.010245226 -0.05613482 -0.073907
000210 de 35 42 3d 88 cb c1 bd 12 62 40 3d 86 e7 0b 3d
       0.047414653 -0.09462649 0.046968527 0.034156345
000220 1c 46 80 bd 8a 60 03 3d 0a 0d 71 3d b4 50 d0 bc
       -0.06263372 0.03207449 0.058850326 -0.025429107
000230 86 29 67 3d b8 5f c9 bc 71 9e c5 3d c3 e3 57 bd
       0.056436084 -0.024581775 0.09649361 -0.052707445
000240 e2 bf 66 3d 8f 00 bf bd a2 d1 af bd 7f b4 bb bd
       0.056335337 -0.093262784 -0.08584906 -0.09165286
000250 30 8f 59 bd c0 8a e5 3a d7 5b a3 3d 78 76 b2 bd
       -0.05311507 0.0017512664 0.079765014 -0.08714002
000260 93 ff a6 3d 16 02 86 bd 42 24 68 3d 11 91 85 3d
       0.08154216 -0.065433666 0.056675203 0.0652181
000270 d2 cf 46 3d a0 3e ae 3b 53 bc 84 3d 3a 0b 1b 3d
       0.048538037 0.005317524 0.064812325 0.037852503
000280 95 92 a5 3d 77 37 b7 bd 20 d5 28 bd 3c ec d0 3c
       0.08084599 -0.08946126 -0.041218877 0.02550327
000290 d4 4d ae bc a0 ee 78 bd 2f d9 ba 3d b2 9f c4 bd
       -0.021277346 -0.060774446 0.09123456 -0.09600772
0002a0 e6 82 0a 3d e8 12 29 bc 3d 17 ab 3d 92 af 37 3d
       0.03381624 -0.010319449 0.08354042 0.04484517
0002b0 c2 3a c6 bd 3c fc 8a bd b5 c9 aa bd 2b 14 c5 bd
       -0.09679176 -0.06786391 -0.08339254 -0.09622987
0002c0 e8 c9 23 bc ce 2d 9c bd a6 49 84 bd 44 a2 fb 3c
       -0.009996869 -0.07625924 -0.0645936 0.030717023
0002d0 78 e3 bc bd bd 6f 33 bd d1 ff 9c 3d 36 fd 12 bd
       -0.09223074 -0.043807734 0.076659806 -0.035886012
0002e0 94 a0 b7 bc 64 3a cd 3c ca 6e 7a bd e6 e6 0b 3d
       -0.022415437 0.025052257 -0.061140813 0.03415575
0002f0 c3 c6 43 bd d0 fb 6f 3c 6a 5e 05 3d 00 0f b0 3b
       -0.047796976 0.014647439 0.032560743 0.005372882
000300 f0 2b c5 bd d0 cb 22 3c 98 a2 ff bc f4 25 a2 3c
       -0.09627521 0.009936288 -0.03120546 0.019793488
000310 1b 0e 99 3d b2 79 bc bd ad d5 c8 bd 84 c2 fd 3c
       0.074733935 -0.09202899 -0.098063804 0.030976541
000320 e1 b5 c7 3d f0 9f 02 3c 70 4c 6c bd 8a 12 5a bd
       0.097514875 0.007972702 -0.057690084 -0.053240336
000330 d2 a4 09 3d 08 ea a1 bd 06 03 34 3d ab 76 c6 3d
       0.03360445 -0.07905966 0.043948196 0.09690603
000340 60 4e ca bc be 6a 1a 3d 12 ac 9a bd 5f d5 9a 3d
       -0.024695575 0.037699454 -0.07552351 0.075602286
000350 e8 df a1 bc ba 57 63 3d 63 53 73 bd ce d9 75 3d
       -0.019760087 0.055503584 -0.059405696 0.060022168
000360 c0 b2 03 3b ad a0 99 bd 79 3f 9b 3d 28 fa bf 3c
       0.0020095557 -0.075013496 0.07580466 0.023434713
000370 d0 4c b4 3b ca dd a6 bd 70 1e 15 3c aa 66 5b bd
       0.005502321 -0.08147772 0.009101495 -0.053564705
000380 b0 42 9b bd 75 40 a6 3d 22 11 94 bd 4c 7d 93 bc
       -0.07581079 0.08117763 -0.0722983 -0.018004082
000390 cb c3 c1 3d 08 fa d5 bc 95 81 b9 3d d0 cc bf 3b
       0.09461173 -0.0261202 0.09057919 0.005853273
0003a0 70 34 55 3c 37 22 28 bd 47 31 44 bd a4 37 fd 3c
       0.01301299 -0.041048255 -0.047898557 0.03091032
0003b0 e0 79 89 bd 59 5b c7 3d ae 8d 4b 3d ef 0d ba 3d
       -0.06712699 0.0973422 0.049695663 0.09084689
0003c0 00 51 28 3c a0 b6 de bb 6c 5f a0 bc 98 0a 22 3c
       0.010273218 -0.006796673 -0.01957675 0.009890221
0003d0 9f a3 cb bd 3c 89 86 bd 2d 2d c7 bd d2 7b 15 3d
       -0.099433176 -0.06569144 -0.097254135 0.036495037
0003e0 b0 03 b4 bb 50 4a 7c bc 5a ab 52 3d 12 ee 51 3d
       -0.0054936036 -0.015398577 0.051432945 0.051252432
0003f0 5c 98 8c bd b7 56 c8 bd 4a c4 c2 bd 8a f1 09 3d
       -0.06864998 -0.097821645 -0.095100954 0.033677615

lstm.bias_hh_l0 f4 [400]
000000 c4 bb fa 3c ab 19 b1 3d a8 3a ca bd a8 e9 b5 bd
       0.030607112 0.08647474 -0.09874469 -0.08882457
000010 d0 60 a2 bd a0 6a 9b bc c0 df 03 bc 14 79 b7 3c
       -0.07928622 -0.018971741 -0.008048952 0.022396602
000020 bb 92 a3 3d 75 1e 86 3d 71 4c 8a 3d f0 24 83 bd
       0.07986971 0.06548778 0.06752861 -0.0640353
000030 90 0c 37 bc a5 39 af bd dd fb 41 bd c7 30 92 3d
       -0.011172429 -0.08555917 -0.047359336 0.0713821
000040 4e b9 1d 3d 4a 5f 29 bd d0 9d cd 3b 74 b4 b9 3c
       0.0385068 -0.04135064 0.006274916 0.022669055
000050 39 7e 97 3d cd 15 8e 3d cc 54 de bc b0 7b af bb
       0.07397122 0.06937752 -0.027140044 -0.005355321
000060 78 ec b1 bc de f7 4f 3d 65 bf b9 3d 1f 4a a8 3d
       -0.021719202 0.050773494 0.09069709 0.082172625
000070 98 ec 70 3c 9a d9 28 3d c1 57 91 3d 17 6b 93 3d
       0.014704846 0.041223146 0.07096816 0.0719816
000080 7f 62 8d 3d db 14 8c 3d 10 13 81 bd 18 cf 99 bd
       0.06903552 0.06839915 -0.06302464 -0.07510203
000090 62 2c 48 3d 3e ff 6d 3d 95 2f 92 3d c0 6c f7 bc
       0.04887045 0.058104746 0.07137982 -0.030203223
0000a0 e0 41 9d bc 96 db 8d bd a0 37 e2 3b f4 1f 80 3c
       -0.01919645 -0.06926648 0.0069036037 0.015640236
0000b0 8b 04 8c 3d 72 04 28 3d dc 3b da 3c 40 94 68 bd
       0.06836804 0.041019864 0.026639871 -0.056782007
0000c0 21 64 87 3d 60 ce 70 3b 90 00 44 3c be b7 99 bd
       0.06610895 0.0036744103 0.011963025 -0.07505749
0000d0 50 39 0f 3c 07 0b c2 3d be 47 78 3d 3d ed 94 bd
       0.008741692 0.094747595 0.060615294 -0.07271812
0000e0 7a 60 69 3d 2b 19 a3 bd 55 34 c4 3d ec 11 91 3c
       0.056976773 -0.07963785 0.09580294 0.017708741
0000f0 a9 d1 bf 3d be 53 4b 3d 13 98 52 bd 18 40 09 bc
       0.093661614 0.04964041 -0.05141456 -0.008377098
000100 53 f2 a9 bd c1 b1 b3 3d 40 8c 15 bb 0c f9 14 bd
       -0.08298173 0.08774138 -0.0022819191 -0.036370322
000110 1d 24 86 3d 2c ce f7 bc 94 df fe bc 00 d0 cf 3b
       0.06549857 -0.030249678 -0.03111247 0.006341934
000120 b4 0f b1 bc 40 4d 29 bc d4 b9 e0 bc 1b 2a a4 bd
       -0.021613933 -0.010333359 -0.02743236 -0.080158435
000130 90 7b 4d bd e0 82 ed 3b 24 13 08 bd 53 c1 89 3d
       -0.050166667 0.0072482675 -0.03322138 0.06726327
000140 00 c5 b3 bd d9 24 a3 3d 79 ef af 3d 70 e0 29 3c
       -0.08777809 0.079660125 0.08590598 0.0103684515
000150 cd 99 b4 bd 60 75 fa bb da f7 00 3d 08 c3 de bc
       -0.08818398 -0.0076433867 0.03148637 -0.027192608
000160 8d f5 84 bd c8 a2 cc bc e3 09 4f bd 30 b6 9a bb
       -0.064921476 -0.024979964 -0.050546538 -0.0047214255
000170 34 e1 82 bd 61 53 93 3d aa 2d 2f bd 2d 89 94 bd
       -0.0639061 0.07193638 -0.042768158 -0.07252727
000180 60 e1 ac bc 52 c5 04 3d 60 25 17 3b 36 80 3d 3d
       -0.02110356 0.03241474 0.0023063049 0.04626485
000190 c7 10 aa 3d b7 76 b1 3d e8 7e 48 3c dd 9e 73 bd
       0.08303981 0.08665221 0.012237288 -0.059477676
0001a0 7e 93 aa bd b2 b0 bb bd 30 ec 4f bd ec 01 ee 3c
       -0.08328913 -0.09164561 -0.050762355 0.02905365
0001b0 55 c4 c6 bd cb 44 9d 3d 9b 9a cc bd 82 41 07 3d
       -0.09705416 0.07679137 -0.09990426 0.033021457
0001c0 30 cb 2e bc 13 21 6b bd 8a 77 5e bd 42 d5 45 3d
       -0.010668561 -0.05740459 -0.05431322 0.04829908
0001d0 a0 ad ed 3b 18 30 4f 3c 60 af 8a 3c 82 5a b8 bd
       0.0072533637 0.012645744 0.016929328 -0.09001638
0001e0 c0 e6 a6 bd 2e aa 3e 3d 54 b8 88 bc 3d 08 6c bd
       -0.08149481 0.046549015 -0.016689457 -0.057625044
0001f0 3a 66 0d bd 14 b5 ad bc b5 e3 83 bd 00 78 11 bc
       -0.03452132 -0.021204509 -0.06439916 -0.008878708
000200 68 34 ec bc c6 56 4c 3d ae e5 36 3d 92 66 37 3d
       -0.028833583 0.04988744 0.044652633 0.044775553
000210 d0 71 6c bc e3 b2 c8 3d 88 ca a8 bc ad bb b9 3d
       -0.014431432 0.09799745 -0.020604387 0.090689994
000220 93 91 91 3d 5f a8 cb bd 3e 10 9e bd 92 c8 08 3d
       0.07107844 -0.099442236 -0.07717942 0.033394404
000230 68 c7 94 bc f0 e8 80 bd c0 2e b2 3a c0 ba a3 3a
       -0.01816149 -0.06294429 0.0013594255 0.0012491569
000240 e1 a0 bb 3d 1f a3 ae 3d 50 9a c9 3b e8 c0 b4 bd
       0.091615446 0.08527207 0.0061524287 -0.088258564
000250 83 ff bc 3d 94 ef 9e bc 01 b1 88 3d 15 40 87 3d
       0.092284225 -0.01940135 0.06674386 0.066040196
000260 db 1b 8d 3d c2 42 3a 3d 0d 37 3b bd 0d 3c 52 bd
       0.06890079 0.04547382 -0.045706797 -0.0513268
000270 69 cf c7 3d e0 0f fb bc 93 e8 bd bd 8a 80 26 3d
       0.09756357 -0.030647218 -0.09272876 0.04064993
000280 9c 70 83 bd c0 30 00 bc 32 9a 45 3d fb c2 af 3d
       -0.06417963 -0.007824123 0.048242755 0.085821114
000290 d5 e5 91 bd db 64 81 3d a2 a8 0a 3d 29 cf 88 3d
       -0.07123915 0.06318065 0.033852227 0.06680138
0002a0 e7 f8 34 bd 73 a9 35 bd c0 89 5c bb 90 f6 40 bc
       -0.044182684 -0.044351052 -0.0033651441 -0.011777535
0002b0 0a 79 45 3d ca 41 89 bd 99 db a5 3d 61 3e 83 3d
       0.048211135 -0.067020014 0.080985256 0.06408382
0002c0 fe 7a 47 3d 60 97 37 3b a0 0a bf bc 1e 79 61 3d
       0.04870128 0.002801381 -0.023320496 0.055047147
0002d0 b9 f3 85 3d 40 1d 0a 3c 96 f3 a5 bd f9 1a 9c 3d
       0.06540627 0.008429825 -0.08103101 0.07622332
0002e0 41 ee 81 3d 00 b5 f0 39 d1 5d b9 3d b4 e8 c5 3c
       0.063442715 0.00045911223 0.09051097 0.024158813
0002f0 ce 55 1f 3d 36 5c 18 bd d0 cc 0d bc 68 cb 20 3c
       0.03890019 -0.037197314 -0.008654788 0.009814121
000300 a1 1f b3 3d 10 4b 7f 3c 7d 1f af bd 00 5c 4f bd
       0.08746267 0.015581861 -0.08550928 -0.050624847
000310 e0 21 98 bd 0a 6d 1e 3d 50 15 c9 bb aa 14 65 3d
       -0.07428336 0.038678207 -0.006136574 0.05592791
000320 9e e3 5a 3d 0e fd 60 3d 50 0a 53 3c f0 ca 4e bd
       0.05343973 0.05492883 0.012880877 -0.050486505
000330 ba 30 67 3d 00 82 7a 3c b7 6f 73 bd e3 17 24 bd
       0.056442954 0.0152897835 -0.05943271 -0.040061843
000340 6a e5 5a bd 5f 49 bc bd 00 b1 2f bb 58 09 c8 bc
       -0.053441443 -0.09193682 -0.002680838 -0.024418518
000350 80 84 0c bd c4 23 01 bd ac 70 df bc 26 11 70 3d
       -0.03430605 -0.03152825 -0.027275406 0.058610104
000360 0d dc 42 bd a2 53 28 3d 40 31 14 bc 1d d3 67 bd
       -0.047573138 0.041095383 -0.009044945 -0.056597818
000370 47 3e 83 3d 60 7f 40 bd 02 48 1c 3d be 7d 17 3d
       0.06408363 -0.046996474 0.03815461 0.03698515
000380 74 96 0a bd 9b 0e 91 bd 12 f8 31 3d cb 7a 98 3d
       -0.03383489 -0.07082864 0.04344947 0.07445296
000390 5e 67 93 bd 45 e8 9b 3d 01 df ae 3d 79 ed 9b 3d
       -0.0719745 0.07612661 0.08538628 0.07613654
0003a0 03 59 c5 3d 3a 18 10 3d 33 6a 27 bd 81 49 c7 3d
       0.09636118 0.035179354 -0.040872764 0.09730817
0003b0 65 d1 a6 3d 80 c8 91 bb 9b cf 8f bd 09 b2 bc 3d
       0.081454076 -0.0044489503 -0.070220195 0.09213645
0003c0 c2 b2 79 3d 50 86 af bb ea db a9 bd 90 23 5a 3c
       0.060961492 -0.0053565875 -0.082938984 0.013314143
0003d0 cc cd ee bc 6d 13 2a bd 82 ee 25 3d 1b d0 bf bd
       -0.029150866 -0.041522432 0.040510662 -0.09365865
0003e0 18 4c 71 3c 32 d3 42 3d 1a 04 c5 bd f0 20 a0 bd
       0.014727615 0.047564693 -0.09619923 -0.07818782
0003f0 87 6c 8b 3d 10 9e 68 bd a2 21 b7 bd 40 f5 22 bc
       0.06807809 -0.056791365 -0.08941962 -0.0099461675

fc.weight f4 [1, 100]
000000 c7 c7 c7 bd 62 69 4a 3d 80 d3 e1 ba 80 86 2d bc
       -0.097549014 0.049416907 -0.001722917 -0.010591149
000010 f0 30 76 3c f9 32 a5 3d 50 38 b7 bd e8 cd 1f bc
       0.015026316 0.08066363 -0.08946288 -0.009753682
000020 c8 65 ef bc 6d f7 9f bd bb 58 93 3d eb 92 8f bd
       -0.029223338 -0.078108646 0.07194658 -0.07010444
000030 9f b9 92 3d 9a 96 69 3d 58 10 ba 3c e0 c1 f7 bb
       0.07164311 0.05702839 0.022712871 -0.0075609535
000040 c0 5a 44 bc da 10 58 bd 5b ef a9 3d 59 21 82 3d
       -0.011984527 -0.052750446 0.082976066 0.06354017
000050 74 6e dd bc 78 12 ad 3c e6 ed 5e 3d 72 8d 44 3d
       -0.027030207 0.02112697 0.054426096 0.047986455
000060 20 3e 80 bc c0 ca 4a bd d6 56 8a bd 54 ab d8 bc
       -0.015654624 -0.049509764 -0.06754844 -0.026448883
000070 47 a6 96 3d 73 68 3d bd 28 9c 14 bc 16 1c 0d bd
       0.07355934 -0.04624219 -0.009070434 -0.034450613
000080 d0 cd 22 3c e7 48 1a bd 60 e5 48 bd 32 a5 45 3d
       0.009936765 -0.03766718 -0.049046874 0.048253246
000090 e2 c2 2b 3d 20 dc 00 bd b9 1b 94 3d c0 86 a9 bc
       0.0419339 -0.031459928 0.0723185 -0.020694137
0000a0 30 42 1c 3c 00 63 59 3c cc ee a3 3c 12 05 02 3d
       0.009537265 0.013268232 0.020011328 0.031743117
0000b0 7b 56 9f 3d 56 c5 58 3d d0 84 b2 3b 33 15 32 bd
       0.07780167 0.05292257 0.0054479614 -0.04347725
0000c0 54 dd b1 3c 91 0f cb 3d 3a e8 05 bd 78 9e a6 bd
       0.021711983 0.099150784 -0.03269217 -0.08135694
0000d0 c8 2a 93 bd 00 0d 4f bb 94 b5 c3 3c 43 1a a4 3d
       -0.07185894 -0.0031593442 0.023890294 0.080128215
0000e0 40 6c 54 bb 8a e5 24 3d 35 00 8f 3d 58 8c 5d 3c
       -0.0032413155 0.040257968 0.06982461 0.01352223
0000f0 b4 3e 9a 3c b2 c0 9f bd 2f ed ca bd 00 f8 d6 bc
       0.018828727 -0.078004256 -0.099085204 -0.026241302
000100 7a a2 59 bd a9 a3 b0 3d 88 5f 86 bc 15 75 8a 3d
       -0.053133465 0.08624966 -0.016402975 0.06760613
000110 10 32 03 bd 20 67 55 bd 24 84 dc 3c 1b 69 bc 3d
       -0.032030165 -0.0521003 0.026918478 0.09199735
000120 56 f5 0e bd 80 1a 38 bc f8 40 8c bd de 13 20 3d
       -0.03490194 -0.011236787 -0.06848329 0.039081447
000130 a9 9b 81 3d 52 8d 6c 3d 74 3e 8a bc 00 60 6e 3c
       0.06328518 0.05775196 -0.016875483 0.014549255
000140 2f 72 8d 3d b7 53 64 bd de 8c 78 3d 3a b2 5a 3d
       0.069065444 -0.0557439 0.060681216 0.053392626
000150 a6 60 9e bd 10 97 b3 bd a3 61 c0 bd 50 6f 1f bd
       -0.07733278 -0.08769047 -0.09393623 -0.038924515
000160 4d 69 1f bd e0 f0 ab bb a3 9a 99 bd e8 e9 70 3c
       -0.038918782 -0.0052472204 -0.07500198 0.014704205
000170 df 96 b7 bd da 37 73 3d e1 e7 bf 3d 00 1f 4e bd
       -0.08964323 0.059379436 0.09370399 -0.050322533
000180 8f 76 c6 bd 5b 94 a1 bd 72 d4 2f 3d 40 31 02 bb
       -0.09690582 -0.07889625 0.042927213 -0.001986578
